fn (%input: Tensor[(1, 3, 80, 80), int8], %v0_weight: Tensor[(16, 3, 3, 3), int8], %v0_bias: Tensor[(16), int32], %v0_zero_x: Tensor[(1), int8], %v0_zero_y: Tensor[(1), int8], %v0_scale: Tensor[(16), float32], %v1_conv_0_weight: Tensor[(16, 1, 3, 3), int8], %v1_conv_0_bias: Tensor[(16), int32], %v1_conv_0_zero_x: Tensor[(1), int8], %v1_conv_0_zero_y: Tensor[(1), int8], %v1_conv_0_scale: Tensor[(16), float32], %v1_conv_1_weight: Tensor[(8, 16, 1, 1), int8], %v1_conv_1_bias: Tensor[(8), int32], %v1_conv_1_zero_x: Tensor[(1), int8], %v1_conv_1_zero_y: Tensor[(1), int8], %v1_conv_1_scale: Tensor[(8), float32], %v2_conv_0_weight: Tensor[(32, 8, 1, 1), int8], %v2_conv_0_bias: Tensor[(32), int32], %v2_conv_0_zero_x: Tensor[(1), int8], %v2_conv_0_zero_y: Tensor[(1), int8], %v2_conv_0_scale: Tensor[(32), float32], %v2_conv_1_weight: Tensor[(32, 1, 3, 3), int8], %v2_conv_1_bias: Tensor[(32), int32], %v2_conv_1_zero_x: Tensor[(1), int8], %v2_conv_1_zero_y: Tensor[(1), int8], %v2_conv_1_scale: Tensor[(32), float32], %v2_conv_2_weight: Tensor[(16, 32, 1, 1), int8], %v2_conv_2_bias: Tensor[(16), int32], %v2_conv_2_zero_x: Tensor[(1), int8], %v2_conv_2_zero_y: Tensor[(1), int8], %v2_conv_2_scale: Tensor[(16), float32], %v3_conv_0_weight: Tensor[(48, 16, 1, 1), int8], %v3_conv_0_bias: Tensor[(48), int32], %v3_conv_0_zero_x: Tensor[(1), int8], %v3_conv_0_zero_y: Tensor[(1), int8], %v3_conv_0_scale: Tensor[(48), float32], %v3_conv_1_weight: Tensor[(48, 1, 3, 3), int8], %v3_conv_1_bias: Tensor[(48), int32], %v3_conv_1_zero_x: Tensor[(1), int8], %v3_conv_1_zero_y: Tensor[(1), int8], %v3_conv_1_scale: Tensor[(48), float32], %v3_conv_2_weight: Tensor[(16, 48, 1, 1), int8], %v3_conv_2_bias: Tensor[(16), int32], %v3_conv_2_zero_x: Tensor[(1), int8], %v3_conv_2_zero_y: Tensor[(1), int8], %v3_conv_2_scale: Tensor[(16), float32], %v3_qadd_zero_x1: Tensor[(1), int8], %v3_qadd_zero_x2: Tensor[(1), int8], %v3_qadd_scale_x1: Tensor[(1), float32], %v3_qadd_scale_x2: Tensor[(1), float32], %v3_qadd_zero_y: Tensor[(1), int8], %v3_qadd_scale_y: Tensor[(1), float32], %v4_conv_0_weight: Tensor[(48, 16, 1, 1), int8], %v4_conv_0_bias: Tensor[(48), int32], %v4_conv_0_zero_x: Tensor[(1), int8], %v4_conv_0_zero_y: Tensor[(1), int8], %v4_conv_0_scale: Tensor[(48), float32], %v4_conv_1_weight: Tensor[(48, 1, 7, 7), int8], %v4_conv_1_bias: Tensor[(48), int32], %v4_conv_1_zero_x: Tensor[(1), int8], %v4_conv_1_zero_y: Tensor[(1), int8], %v4_conv_1_scale: Tensor[(48), float32], %v4_conv_2_weight: Tensor[(24, 48, 1, 1), int8], %v4_conv_2_bias: Tensor[(24), int32], %v4_conv_2_zero_x: Tensor[(1), int8], %v4_conv_2_zero_y: Tensor[(1), int8], %v4_conv_2_scale: Tensor[(24), float32], %v5_conv_0_weight: Tensor[(120, 24, 1, 1), int8], %v5_conv_0_bias: Tensor[(120), int32], %v5_conv_0_zero_x: Tensor[(1), int8], %v5_conv_0_zero_y: Tensor[(1), int8], %v5_conv_0_scale: Tensor[(120), float32], %v5_conv_1_weight: Tensor[(120, 1, 3, 3), int8], %v5_conv_1_bias: Tensor[(120), int32], %v5_conv_1_zero_x: Tensor[(1), int8], %v5_conv_1_zero_y: Tensor[(1), int8], %v5_conv_1_scale: Tensor[(120), float32], %v5_conv_2_weight: Tensor[(24, 120, 1, 1), int8], %v5_conv_2_bias: Tensor[(24), int32], %v5_conv_2_zero_x: Tensor[(1), int8], %v5_conv_2_zero_y: Tensor[(1), int8], %v5_conv_2_scale: Tensor[(24), float32], %v5_qadd_zero_x1: Tensor[(1), int8], %v5_qadd_zero_x2: Tensor[(1), int8], %v5_qadd_scale_x1: Tensor[(1), float32], %v5_qadd_scale_x2: Tensor[(1), float32], %v5_qadd_zero_y: Tensor[(1), int8], %v5_qadd_scale_y: Tensor[(1), float32], %v6_conv_0_weight: Tensor[(120, 24, 1, 1), int8], %v6_conv_0_bias: Tensor[(120), int32], %v6_conv_0_zero_x: Tensor[(1), int8], %v6_conv_0_zero_y: Tensor[(1), int8], %v6_conv_0_scale: Tensor[(120), float32], %v6_conv_1_weight: Tensor[(120, 1, 3, 3), int8], %v6_conv_1_bias: Tensor[(120), int32], %v6_conv_1_zero_x: Tensor[(1), int8], %v6_conv_1_zero_y: Tensor[(1), int8], %v6_conv_1_scale: Tensor[(120), float32], %v6_conv_2_weight: Tensor[(40, 120, 1, 1), int8], %v6_conv_2_bias: Tensor[(40), int32], %v6_conv_2_zero_x: Tensor[(1), int8], %v6_conv_2_zero_y: Tensor[(1), int8], %v6_conv_2_scale: Tensor[(40), float32], %v7_conv_0_weight: Tensor[(160, 40, 1, 1), int8], %v7_conv_0_bias: Tensor[(160), int32], %v7_conv_0_zero_x: Tensor[(1), int8], %v7_conv_0_zero_y: Tensor[(1), int8], %v7_conv_0_scale: Tensor[(160), float32], %v7_conv_1_weight: Tensor[(160, 1, 7, 7), int8], %v7_conv_1_bias: Tensor[(160), int32], %v7_conv_1_zero_x: Tensor[(1), int8], %v7_conv_1_zero_y: Tensor[(1), int8], %v7_conv_1_scale: Tensor[(160), float32], %v7_conv_2_weight: Tensor[(40, 160, 1, 1), int8], %v7_conv_2_bias: Tensor[(40), int32], %v7_conv_2_zero_x: Tensor[(1), int8], %v7_conv_2_zero_y: Tensor[(1), int8], %v7_conv_2_scale: Tensor[(40), float32], %v7_qadd_zero_x1: Tensor[(1), int8], %v7_qadd_zero_x2: Tensor[(1), int8], %v7_qadd_scale_x1: Tensor[(1), float32], %v7_qadd_scale_x2: Tensor[(1), float32], %v7_qadd_zero_y: Tensor[(1), int8], %v7_qadd_scale_y: Tensor[(1), float32], %v8_conv_0_weight: Tensor[(160, 40, 1, 1), int8], %v8_conv_0_bias: Tensor[(160), int32], %v8_conv_0_zero_x: Tensor[(1), int8], %v8_conv_0_zero_y: Tensor[(1), int8], %v8_conv_0_scale: Tensor[(160), float32], %v8_conv_1_weight: Tensor[(160, 1, 5, 5), int8], %v8_conv_1_bias: Tensor[(160), int32], %v8_conv_1_zero_x: Tensor[(1), int8], %v8_conv_1_zero_y: Tensor[(1), int8], %v8_conv_1_scale: Tensor[(160), float32], %v8_conv_2_weight: Tensor[(48, 160, 1, 1), int8], %v8_conv_2_bias: Tensor[(48), int32], %v8_conv_2_zero_x: Tensor[(1), int8], %v8_conv_2_zero_y: Tensor[(1), int8], %v8_conv_2_scale: Tensor[(48), float32], %v9_conv_0_weight: Tensor[(144, 48, 1, 1), int8], %v9_conv_0_bias: Tensor[(144), int32], %v9_conv_0_zero_x: Tensor[(1), int8], %v9_conv_0_zero_y: Tensor[(1), int8], %v9_conv_0_scale: Tensor[(144), float32], %v9_conv_1_weight: Tensor[(144, 1, 3, 3), int8], %v9_conv_1_bias: Tensor[(144), int32], %v9_conv_1_zero_x: Tensor[(1), int8], %v9_conv_1_zero_y: Tensor[(1), int8], %v9_conv_1_scale: Tensor[(144), float32], %v9_conv_2_weight: Tensor[(48, 144, 1, 1), int8], %v9_conv_2_bias: Tensor[(48), int32], %v9_conv_2_zero_x: Tensor[(1), int8], %v9_conv_2_zero_y: Tensor[(1), int8], %v9_conv_2_scale: Tensor[(48), float32], %v9_qadd_zero_x1: Tensor[(1), int8], %v9_qadd_zero_x2: Tensor[(1), int8], %v9_qadd_scale_x1: Tensor[(1), float32], %v9_qadd_scale_x2: Tensor[(1), float32], %v9_qadd_zero_y: Tensor[(1), int8], %v9_qadd_scale_y: Tensor[(1), float32], %v10_conv_0_weight: Tensor[(192, 48, 1, 1), int8], %v10_conv_0_bias: Tensor[(192), int32], %v10_conv_0_zero_x: Tensor[(1), int8], %v10_conv_0_zero_y: Tensor[(1), int8], %v10_conv_0_scale: Tensor[(192), float32], %v10_conv_1_weight: Tensor[(192, 1, 3, 3), int8], %v10_conv_1_bias: Tensor[(192), int32], %v10_conv_1_zero_x: Tensor[(1), int8], %v10_conv_1_zero_y: Tensor[(1), int8], %v10_conv_1_scale: Tensor[(192), float32], %v10_conv_2_weight: Tensor[(48, 192, 1, 1), int8], %v10_conv_2_bias: Tensor[(48), int32], %v10_conv_2_zero_x: Tensor[(1), int8], %v10_conv_2_zero_y: Tensor[(1), int8], %v10_conv_2_scale: Tensor[(48), float32], %v10_qadd_zero_x1: Tensor[(1), int8], %v10_qadd_zero_x2: Tensor[(1), int8], %v10_qadd_scale_x1: Tensor[(1), float32], %v10_qadd_scale_x2: Tensor[(1), float32], %v10_qadd_zero_y: Tensor[(1), int8], %v10_qadd_scale_y: Tensor[(1), float32], %v11_conv_0_weight: Tensor[(240, 48, 1, 1), int8], %v11_conv_0_bias: Tensor[(240), int32], %v11_conv_0_zero_x: Tensor[(1), int8], %v11_conv_0_zero_y: Tensor[(1), int8], %v11_conv_0_scale: Tensor[(240), float32], %v11_conv_1_weight: Tensor[(240, 1, 7, 7), int8], %v11_conv_1_bias: Tensor[(240), int32], %v11_conv_1_zero_x: Tensor[(1), int8], %v11_conv_1_zero_y: Tensor[(1), int8], %v11_conv_1_scale: Tensor[(240), float32], %v11_conv_2_weight: Tensor[(96, 240, 1, 1), int8], %v11_conv_2_bias: Tensor[(96), int32], %v11_conv_2_zero_x: Tensor[(1), int8], %v11_conv_2_zero_y: Tensor[(1), int8], %v11_conv_2_scale: Tensor[(96), float32], %v12_conv_0_weight: Tensor[(384, 96, 1, 1), int8], %v12_conv_0_bias: Tensor[(384), int32], %v12_conv_0_zero_x: Tensor[(1), int8], %v12_conv_0_zero_y: Tensor[(1), int8], %v12_conv_0_scale: Tensor[(384), float32], %v12_conv_1_weight: Tensor[(384, 1, 5, 5), int8], %v12_conv_1_bias: Tensor[(384), int32], %v12_conv_1_zero_x: Tensor[(1), int8], %v12_conv_1_zero_y: Tensor[(1), int8], %v12_conv_1_scale: Tensor[(384), float32], %v12_conv_2_weight: Tensor[(96, 384, 1, 1), int8], %v12_conv_2_bias: Tensor[(96), int32], %v12_conv_2_zero_x: Tensor[(1), int8], %v12_conv_2_zero_y: Tensor[(1), int8], %v12_conv_2_scale: Tensor[(96), float32], %v12_qadd_zero_x1: Tensor[(1), int8], %v12_qadd_zero_x2: Tensor[(1), int8], %v12_qadd_scale_x1: Tensor[(1), float32], %v12_qadd_scale_x2: Tensor[(1), float32], %v12_qadd_zero_y: Tensor[(1), int8], %v12_qadd_scale_y: Tensor[(1), float32], %v13_conv_0_weight: Tensor[(384, 96, 1, 1), int8], %v13_conv_0_bias: Tensor[(384), int32], %v13_conv_0_zero_x: Tensor[(1), int8], %v13_conv_0_zero_y: Tensor[(1), int8], %v13_conv_0_scale: Tensor[(384), float32], %v13_conv_1_weight: Tensor[(384, 1, 5, 5), int8], %v13_conv_1_bias: Tensor[(384), int32], %v13_conv_1_zero_x: Tensor[(1), int8], %v13_conv_1_zero_y: Tensor[(1), int8], %v13_conv_1_scale: Tensor[(384), float32], %v13_conv_2_weight: Tensor[(96, 384, 1, 1), int8], %v13_conv_2_bias: Tensor[(96), int32], %v13_conv_2_zero_x: Tensor[(1), int8], %v13_conv_2_zero_y: Tensor[(1), int8], %v13_conv_2_scale: Tensor[(96), float32], %v13_qadd_zero_x1: Tensor[(1), int8], %v13_qadd_zero_x2: Tensor[(1), int8], %v13_qadd_scale_x1: Tensor[(1), float32], %v13_qadd_scale_x2: Tensor[(1), float32], %v13_qadd_zero_y: Tensor[(1), int8], %v13_qadd_scale_y: Tensor[(1), float32], %v14_conv_0_weight: Tensor[(576, 96, 1, 1), int8], %v14_conv_0_bias: Tensor[(576), int32], %v14_conv_0_zero_x: Tensor[(1), int8], %v14_conv_0_zero_y: Tensor[(1), int8], %v14_conv_0_scale: Tensor[(576), float32], %v14_conv_1_weight: Tensor[(576, 1, 3, 3), int8], %v14_conv_1_bias: Tensor[(576), int32], %v14_conv_1_zero_x: Tensor[(1), int8], %v14_conv_1_zero_y: Tensor[(1), int8], %v14_conv_1_scale: Tensor[(576), float32], %v14_conv_2_weight: Tensor[(160, 576, 1, 1), int8], %v14_conv_2_bias: Tensor[(160), int32], %v14_conv_2_zero_x: Tensor[(1), int8], %v14_conv_2_zero_y: Tensor[(1), int8], %v14_conv_2_scale: Tensor[(160), float32], %v15_weight: Tensor[(100, 160, 1, 1), int8], %v15_bias: Tensor[(100), int32], %v15_zero_x: Tensor[(1), int8], %v15_zero_y: Tensor[(1), int8], %v15_scale: Tensor[(100), float32], %label: Tensor[(1, 100), float32]) -> (float32, Tensor[(100), float32], Tensor[(100, 160, 1, 1), float32], Tensor[(160), float32], Tensor[(160, 576, 1, 1), float32], Tensor[(576), float32], Tensor[(576, 1, 3, 3), float32], Tensor[(576), float32], Tensor[(576, 96, 1, 1), float32], Tensor[(96), float32], Tensor[(96, 384, 1, 1), float32], Tensor[(384), float32], Tensor[(384, 1, 5, 5), float32], Tensor[(384), float32], Tensor[(384, 96, 1, 1), float32], Tensor[(96), float32], Tensor[(96, 384, 1, 1), float32], Tensor[(384), float32], Tensor[(384, 1, 5, 5), float32], Tensor[(384), float32], Tensor[(384, 96, 1, 1), float32], Tensor[(96), float32], Tensor[(96, 240, 1, 1), float32], Tensor[(240), float32], Tensor[(240, 1, 7, 7), float32], Tensor[(240), float32], Tensor[(240, 48, 1, 1), float32], Tensor[(48), float32], Tensor[(48, 192, 1, 1), float32], Tensor[(192), float32], Tensor[(192, 1, 3, 3), float32], Tensor[(192), float32], Tensor[(192, 48, 1, 1), float32], Tensor[(48), float32], Tensor[(48, 144, 1, 1), float32], Tensor[(144), float32], Tensor[(144, 1, 3, 3), float32], Tensor[(144), float32], Tensor[(144, 48, 1, 1), float32], Tensor[(48), float32], Tensor[(48, 160, 1, 1), float32], Tensor[(160), float32], Tensor[(160, 1, 5, 5), float32], Tensor[(160), float32], Tensor[(160, 40, 1, 1), float32], Tensor[(40), float32], Tensor[(40, 160, 1, 1), float32], Tensor[(160), float32], Tensor[(160, 1, 7, 7), float32], Tensor[(160), float32], Tensor[(160, 40, 1, 1), float32], Tensor[(40), float32], Tensor[(40, 120, 1, 1), float32], Tensor[(120), float32], Tensor[(120, 1, 3, 3), float32], Tensor[(120), float32], Tensor[(120, 24, 1, 1), float32], Tensor[(24), float32], Tensor[(24, 120, 1, 1), float32], Tensor[(120), float32], Tensor[(120, 1, 3, 3), float32], Tensor[(120), float32], Tensor[(120, 24, 1, 1), float32], Tensor[(24), float32], Tensor[(24, 48, 1, 1), float32], Tensor[(48), float32], Tensor[(48, 1, 7, 7), float32], Tensor[(48), float32], Tensor[(48, 16, 1, 1), float32], Tensor[(16), float32], Tensor[(16, 48, 1, 1), float32], Tensor[(48), float32], Tensor[(48, 1, 3, 3), float32], Tensor[(48), float32], Tensor[(48, 16, 1, 1), float32], Tensor[(16), float32], Tensor[(16, 32, 1, 1), float32], Tensor[(32), float32], Tensor[(32, 1, 3, 3), float32], Tensor[(32), float32], Tensor[(32, 8, 1, 1), float32], Tensor[(8), float32], Tensor[(8, 16, 1, 1), float32], Tensor[(16), float32], Tensor[(16, 1, 3, 3), float32], Tensor[(16), float32], Tensor[(16, 3, 3, 3), float32]) {
  %0 = nn.mcuconv2d(%input, %v0_weight, %v0_bias, %v0_zero_x, %v0_zero_y, %v0_scale, strides=[2, 2], padding=[1, 1, 1, 1]) /* from_string */ /* ty=Tensor[(1, 16, 40, 40), int32] */;
  %1 = nn.mcutruncate(%0) /* from_string */ /* ty=Tensor[(1, 16, 40, 40), int8] */;
  %2 = nn.mcuconv2d(%1, %v1_conv_0_weight, %v1_conv_0_bias, %v1_conv_0_zero_x, %v1_conv_0_zero_y, %v1_conv_0_scale, padding=[1, 1, 1, 1], groups=16) /* from_string */ /* ty=Tensor[(1, 16, 40, 40), int32] */;
  %3 = nn.mcutruncate(%2) /* from_string */ /* ty=Tensor[(1, 16, 40, 40), int8] */;
  %4 = nn.mcuconv2d(%3, %v1_conv_1_weight, %v1_conv_1_bias, %v1_conv_1_zero_x, %v1_conv_1_zero_y, %v1_conv_1_scale, padding=[0, 0, 0, 0]) /* from_string */ /* ty=Tensor[(1, 8, 40, 40), int32] */;
  %5 = nn.mcutruncate(%4) /* from_string */ /* ty=Tensor[(1, 8, 40, 40), int8] */;
  %6 = nn.mcuconv2d(%5, %v2_conv_0_weight, %v2_conv_0_bias, %v2_conv_0_zero_x, %v2_conv_0_zero_y, %v2_conv_0_scale, padding=[0, 0, 0, 0]) /* from_string */ /* ty=Tensor[(1, 32, 40, 40), int32] */;
  %7 = nn.mcutruncate(%6) /* from_string */ /* ty=Tensor[(1, 32, 40, 40), int8] */;
  %8 = nn.mcuconv2d(%7, %v2_conv_1_weight, %v2_conv_1_bias, %v2_conv_1_zero_x, %v2_conv_1_zero_y, %v2_conv_1_scale, strides=[2, 2], padding=[1, 1, 1, 1], groups=32) /* from_string */ /* ty=Tensor[(1, 32, 20, 20), int32] */;
  %9 = nn.mcutruncate(%8) /* from_string */ /* ty=Tensor[(1, 32, 20, 20), int8] */;
  %10 = nn.mcuconv2d(%9, %v2_conv_2_weight, %v2_conv_2_bias, %v2_conv_2_zero_x, %v2_conv_2_zero_y, %v2_conv_2_scale, padding=[0, 0, 0, 0]) /* from_string */ /* ty=Tensor[(1, 16, 20, 20), int32] */;
  %11 = nn.mcutruncate(%10) /* from_string */ /* ty=Tensor[(1, 16, 20, 20), int8] */;
  %12 = nn.mcuconv2d(%11, %v3_conv_0_weight, %v3_conv_0_bias, %v3_conv_0_zero_x, %v3_conv_0_zero_y, %v3_conv_0_scale, padding=[0, 0, 0, 0]) /* from_string */ /* ty=Tensor[(1, 48, 20, 20), int32] */;
  %13 = nn.mcutruncate(%12) /* from_string */ /* ty=Tensor[(1, 48, 20, 20), int8] */;
  %14 = nn.mcuconv2d(%13, %v3_conv_1_weight, %v3_conv_1_bias, %v3_conv_1_zero_x, %v3_conv_1_zero_y, %v3_conv_1_scale, padding=[1, 1, 1, 1], groups=48) /* from_string */ /* ty=Tensor[(1, 48, 20, 20), int32] */;
  %15 = nn.mcutruncate(%14) /* from_string */ /* ty=Tensor[(1, 48, 20, 20), int8] */;
  %16 = nn.mcuconv2d(%15, %v3_conv_2_weight, %v3_conv_2_bias, %v3_conv_2_zero_x, %v3_conv_2_zero_y, %v3_conv_2_scale, padding=[0, 0, 0, 0]) /* from_string */ /* ty=Tensor[(1, 16, 20, 20), int32] */;
  %17 = nn.mcutruncate(%16) /* from_string */ /* ty=Tensor[(1, 16, 20, 20), int8] */;
  %18 = nn.mcuadd(%11, %17, %v3_qadd_zero_x1, %v3_qadd_zero_x2, %v3_qadd_scale_x1, %v3_qadd_scale_x2, %v3_qadd_zero_y, %v3_qadd_scale_y, axis=0) /* from_string */ /* ty=Tensor[(1, 16, 20, 20), int8] */;
  %19 = nn.mcutruncate(%18) /* from_string */ /* ty=Tensor[(1, 16, 20, 20), int8] */;
  %20 = nn.mcuconv2d(%19, %v4_conv_0_weight, %v4_conv_0_bias, %v4_conv_0_zero_x, %v4_conv_0_zero_y, %v4_conv_0_scale, padding=[0, 0, 0, 0]) /* from_string */ /* ty=Tensor[(1, 48, 20, 20), int32] */;
  %21 = nn.mcutruncate(%20) /* from_string */ /* ty=Tensor[(1, 48, 20, 20), int8] */;
  %22 = nn.mcuconv2d(%21, %v4_conv_1_weight, %v4_conv_1_bias, %v4_conv_1_zero_x, %v4_conv_1_zero_y, %v4_conv_1_scale, strides=[2, 2], padding=[3, 3, 3, 3], groups=48) /* from_string */ /* ty=Tensor[(1, 48, 10, 10), int32] */;
  %23 = nn.mcutruncate(%22) /* from_string */ /* ty=Tensor[(1, 48, 10, 10), int8] */;
  %24 = nn.mcuconv2d(%23, %v4_conv_2_weight, %v4_conv_2_bias, %v4_conv_2_zero_x, %v4_conv_2_zero_y, %v4_conv_2_scale, padding=[0, 0, 0, 0]) /* from_string */ /* ty=Tensor[(1, 24, 10, 10), int32] */;
  %25 = nn.mcutruncate(%24) /* from_string */ /* ty=Tensor[(1, 24, 10, 10), int8] */;
  %26 = nn.mcuconv2d(%25, %v5_conv_0_weight, %v5_conv_0_bias, %v5_conv_0_zero_x, %v5_conv_0_zero_y, %v5_conv_0_scale, padding=[0, 0, 0, 0]) /* from_string */ /* ty=Tensor[(1, 120, 10, 10), int32] */;
  %27 = nn.mcutruncate(%26) /* from_string */ /* ty=Tensor[(1, 120, 10, 10), int8] */;
  %28 = nn.mcuconv2d(%27, %v5_conv_1_weight, %v5_conv_1_bias, %v5_conv_1_zero_x, %v5_conv_1_zero_y, %v5_conv_1_scale, padding=[1, 1, 1, 1], groups=120) /* from_string */ /* ty=Tensor[(1, 120, 10, 10), int32] */;
  %29 = nn.mcutruncate(%28) /* from_string */ /* ty=Tensor[(1, 120, 10, 10), int8] */;
  %30 = nn.mcuconv2d(%29, %v5_conv_2_weight, %v5_conv_2_bias, %v5_conv_2_zero_x, %v5_conv_2_zero_y, %v5_conv_2_scale, padding=[0, 0, 0, 0]) /* from_string */ /* ty=Tensor[(1, 24, 10, 10), int32] */;
  %31 = nn.mcutruncate(%30) /* from_string */ /* ty=Tensor[(1, 24, 10, 10), int8] */;
  %32 = nn.mcuadd(%25, %31, %v5_qadd_zero_x1, %v5_qadd_zero_x2, %v5_qadd_scale_x1, %v5_qadd_scale_x2, %v5_qadd_zero_y, %v5_qadd_scale_y, axis=0) /* from_string */ /* ty=Tensor[(1, 24, 10, 10), int8] */;
  %33 = nn.mcutruncate(%32) /* from_string */ /* ty=Tensor[(1, 24, 10, 10), int8] */;
  %34 = nn.mcuconv2d(%33, %v6_conv_0_weight, %v6_conv_0_bias, %v6_conv_0_zero_x, %v6_conv_0_zero_y, %v6_conv_0_scale, padding=[0, 0, 0, 0]) /* from_string */ /* ty=Tensor[(1, 120, 10, 10), int32] */;
  %35 = nn.mcutruncate(%34) /* from_string */ /* ty=Tensor[(1, 120, 10, 10), int8] */;
  %36 = nn.mcuconv2d(%35, %v6_conv_1_weight, %v6_conv_1_bias, %v6_conv_1_zero_x, %v6_conv_1_zero_y, %v6_conv_1_scale, strides=[2, 2], padding=[1, 1, 1, 1], groups=120) /* from_string */ /* ty=Tensor[(1, 120, 5, 5), int32] */;
  %37 = nn.mcutruncate(%36) /* from_string */ /* ty=Tensor[(1, 120, 5, 5), int8] */;
  %38 = nn.mcuconv2d(%37, %v6_conv_2_weight, %v6_conv_2_bias, %v6_conv_2_zero_x, %v6_conv_2_zero_y, %v6_conv_2_scale, padding=[0, 0, 0, 0]) /* from_string */ /* ty=Tensor[(1, 40, 5, 5), int32] */;
  %39 = nn.mcutruncate(%38) /* from_string */ /* ty=Tensor[(1, 40, 5, 5), int8] */;
  %40 = nn.mcuconv2d(%39, %v7_conv_0_weight, %v7_conv_0_bias, %v7_conv_0_zero_x, %v7_conv_0_zero_y, %v7_conv_0_scale, padding=[0, 0, 0, 0]) /* from_string */ /* ty=Tensor[(1, 160, 5, 5), int32] */;
  %41 = nn.mcutruncate(%40) /* from_string */ /* ty=Tensor[(1, 160, 5, 5), int8] */;
  %42 = nn.mcuconv2d(%41, %v7_conv_1_weight, %v7_conv_1_bias, %v7_conv_1_zero_x, %v7_conv_1_zero_y, %v7_conv_1_scale, padding=[3, 3, 3, 3], groups=160) /* from_string */ /* ty=Tensor[(1, 160, 5, 5), int32] */;
  %43 = nn.mcutruncate(%42) /* from_string */ /* ty=Tensor[(1, 160, 5, 5), int8] */;
  %44 = nn.mcuconv2d(%43, %v7_conv_2_weight, %v7_conv_2_bias, %v7_conv_2_zero_x, %v7_conv_2_zero_y, %v7_conv_2_scale, padding=[0, 0, 0, 0]) /* from_string */ /* ty=Tensor[(1, 40, 5, 5), int32] */;
  %45 = nn.mcutruncate(%44) /* from_string */ /* ty=Tensor[(1, 40, 5, 5), int8] */;
  %46 = nn.mcuadd(%39, %45, %v7_qadd_zero_x1, %v7_qadd_zero_x2, %v7_qadd_scale_x1, %v7_qadd_scale_x2, %v7_qadd_zero_y, %v7_qadd_scale_y, axis=0) /* from_string */ /* ty=Tensor[(1, 40, 5, 5), int8] */;
  %47 = nn.mcutruncate(%46) /* from_string */ /* ty=Tensor[(1, 40, 5, 5), int8] */;
  %48 = nn.mcuconv2d(%47, %v8_conv_0_weight, %v8_conv_0_bias, %v8_conv_0_zero_x, %v8_conv_0_zero_y, %v8_conv_0_scale, padding=[0, 0, 0, 0]) /* from_string */ /* ty=Tensor[(1, 160, 5, 5), int32] */;
  %49 = nn.mcutruncate(%48) /* from_string */ /* ty=Tensor[(1, 160, 5, 5), int8] */;
  %50 = nn.mcuconv2d(%49, %v8_conv_1_weight, %v8_conv_1_bias, %v8_conv_1_zero_x, %v8_conv_1_zero_y, %v8_conv_1_scale, padding=[2, 2, 2, 2], groups=160) /* from_string */ /* ty=Tensor[(1, 160, 5, 5), int32] */;
  %51 = nn.mcutruncate(%50) /* from_string */ /* ty=Tensor[(1, 160, 5, 5), int8] */;
  %52 = nn.mcuconv2d(%51, %v8_conv_2_weight, %v8_conv_2_bias, %v8_conv_2_zero_x, %v8_conv_2_zero_y, %v8_conv_2_scale, padding=[0, 0, 0, 0]) /* from_string */ /* ty=Tensor[(1, 48, 5, 5), int32] */;
  %53 = nn.mcutruncate(%52) /* from_string */ /* ty=Tensor[(1, 48, 5, 5), int8] */;
  %54 = nn.mcuconv2d(%53, %v9_conv_0_weight, %v9_conv_0_bias, %v9_conv_0_zero_x, %v9_conv_0_zero_y, %v9_conv_0_scale, padding=[0, 0, 0, 0]) /* from_string */ /* ty=Tensor[(1, 144, 5, 5), int32] */;
  %55 = nn.mcutruncate(%54) /* from_string */ /* ty=Tensor[(1, 144, 5, 5), int8] */;
  %56 = nn.mcuconv2d(%55, %v9_conv_1_weight, %v9_conv_1_bias, %v9_conv_1_zero_x, %v9_conv_1_zero_y, %v9_conv_1_scale, padding=[1, 1, 1, 1], groups=144) /* from_string */ /* ty=Tensor[(1, 144, 5, 5), int32] */;
  %57 = nn.mcutruncate(%56) /* from_string */ /* ty=Tensor[(1, 144, 5, 5), int8] */;
  %58 = nn.mcuconv2d(%57, %v9_conv_2_weight, %v9_conv_2_bias, %v9_conv_2_zero_x, %v9_conv_2_zero_y, %v9_conv_2_scale, padding=[0, 0, 0, 0]) /* from_string */ /* ty=Tensor[(1, 48, 5, 5), int32] */;
  %59 = nn.mcutruncate(%58) /* from_string */ /* ty=Tensor[(1, 48, 5, 5), int8] */;
  %60 = nn.mcuadd(%53, %59, %v9_qadd_zero_x1, %v9_qadd_zero_x2, %v9_qadd_scale_x1, %v9_qadd_scale_x2, %v9_qadd_zero_y, %v9_qadd_scale_y, axis=0) /* from_string */ /* ty=Tensor[(1, 48, 5, 5), int8] */;
  %61 = nn.mcutruncate(%60) /* from_string */ /* ty=Tensor[(1, 48, 5, 5), int8] */;
  %62 = nn.mcuconv2d(%61, %v10_conv_0_weight, %v10_conv_0_bias, %v10_conv_0_zero_x, %v10_conv_0_zero_y, %v10_conv_0_scale, padding=[0, 0, 0, 0]) /* from_string */ /* ty=Tensor[(1, 192, 5, 5), int32] */;
  %63 = nn.mcutruncate(%62) /* from_string */ /* ty=Tensor[(1, 192, 5, 5), int8] */;
  %64 = nn.mcuconv2d(%63, %v10_conv_1_weight, %v10_conv_1_bias, %v10_conv_1_zero_x, %v10_conv_1_zero_y, %v10_conv_1_scale, padding=[1, 1, 1, 1], groups=192) /* from_string */ /* ty=Tensor[(1, 192, 5, 5), int32] */;
  %65 = nn.mcutruncate(%64) /* from_string */ /* ty=Tensor[(1, 192, 5, 5), int8] */;
  %66 = nn.mcuconv2d(%65, %v10_conv_2_weight, %v10_conv_2_bias, %v10_conv_2_zero_x, %v10_conv_2_zero_y, %v10_conv_2_scale, padding=[0, 0, 0, 0]) /* from_string */ /* ty=Tensor[(1, 48, 5, 5), int32] */;
  %67 = nn.mcutruncate(%66) /* from_string */ /* ty=Tensor[(1, 48, 5, 5), int8] */;
  %68 = nn.mcuadd(%61, %67, %v10_qadd_zero_x1, %v10_qadd_zero_x2, %v10_qadd_scale_x1, %v10_qadd_scale_x2, %v10_qadd_zero_y, %v10_qadd_scale_y, axis=0) /* from_string */ /* ty=Tensor[(1, 48, 5, 5), int8] */;
  %69 = nn.mcutruncate(%68) /* from_string */ /* ty=Tensor[(1, 48, 5, 5), int8] */;
  %70 = nn.mcuconv2d(%69, %v11_conv_0_weight, %v11_conv_0_bias, %v11_conv_0_zero_x, %v11_conv_0_zero_y, %v11_conv_0_scale, padding=[0, 0, 0, 0]) /* from_string */ /* ty=Tensor[(1, 240, 5, 5), int32] */;
  %71 = nn.mcutruncate(%70) /* from_string */ /* ty=Tensor[(1, 240, 5, 5), int8] */;
  %72 = nn.mcuconv2d(%71, %v11_conv_1_weight, %v11_conv_1_bias, %v11_conv_1_zero_x, %v11_conv_1_zero_y, %v11_conv_1_scale, strides=[2, 2], padding=[3, 3, 3, 3], groups=240) /* from_string */ /* ty=Tensor[(1, 240, 3, 3), int32] */;
  %73 = nn.mcutruncate(%72) /* from_string */ /* ty=Tensor[(1, 240, 3, 3), int8] */;
  %74 = nn.mcuconv2d(%73, %v11_conv_2_weight, %v11_conv_2_bias, %v11_conv_2_zero_x, %v11_conv_2_zero_y, %v11_conv_2_scale, padding=[0, 0, 0, 0]) /* from_string */ /* ty=Tensor[(1, 96, 3, 3), int32] */;
  %75 = nn.mcutruncate(%74) /* from_string */ /* ty=Tensor[(1, 96, 3, 3), int8] */;
  %76 = nn.mcuconv2d(%75, %v12_conv_0_weight, %v12_conv_0_bias, %v12_conv_0_zero_x, %v12_conv_0_zero_y, %v12_conv_0_scale, padding=[0, 0, 0, 0]) /* from_string */ /* ty=Tensor[(1, 384, 3, 3), int32] */;
  %77 = nn.mcutruncate(%76) /* from_string */ /* ty=Tensor[(1, 384, 3, 3), int8] */;
  %78 = nn.mcuconv2d(%77, %v12_conv_1_weight, %v12_conv_1_bias, %v12_conv_1_zero_x, %v12_conv_1_zero_y, %v12_conv_1_scale, padding=[2, 2, 2, 2], groups=384) /* from_string */ /* ty=Tensor[(1, 384, 3, 3), int32] */;
  %79 = nn.mcutruncate(%78) /* from_string */ /* ty=Tensor[(1, 384, 3, 3), int8] */;
  %80 = nn.mcuconv2d(%79, %v12_conv_2_weight, %v12_conv_2_bias, %v12_conv_2_zero_x, %v12_conv_2_zero_y, %v12_conv_2_scale, padding=[0, 0, 0, 0]) /* from_string */ /* ty=Tensor[(1, 96, 3, 3), int32] */;
  %81 = nn.mcutruncate(%80) /* from_string */ /* ty=Tensor[(1, 96, 3, 3), int8] */;
  %82 = nn.mcuadd(%75, %81, %v12_qadd_zero_x1, %v12_qadd_zero_x2, %v12_qadd_scale_x1, %v12_qadd_scale_x2, %v12_qadd_zero_y, %v12_qadd_scale_y, axis=0) /* from_string */ /* ty=Tensor[(1, 96, 3, 3), int8] */;
  %83 = nn.mcutruncate(%82) /* from_string */ /* ty=Tensor[(1, 96, 3, 3), int8] */;
  %84 = nn.mcuconv2d(%83, %v13_conv_0_weight, %v13_conv_0_bias, %v13_conv_0_zero_x, %v13_conv_0_zero_y, %v13_conv_0_scale, padding=[0, 0, 0, 0]) /* from_string */ /* ty=Tensor[(1, 384, 3, 3), int32] */;
  %85 = nn.mcutruncate(%84) /* from_string */ /* ty=Tensor[(1, 384, 3, 3), int8] */;
  %86 = nn.mcuconv2d(%85, %v13_conv_1_weight, %v13_conv_1_bias, %v13_conv_1_zero_x, %v13_conv_1_zero_y, %v13_conv_1_scale, padding=[2, 2, 2, 2], groups=384) /* from_string */ /* ty=Tensor[(1, 384, 3, 3), int32] */;
  %87 = nn.mcutruncate(%86) /* from_string */ /* ty=Tensor[(1, 384, 3, 3), int8] */;
  %88 = nn.mcuconv2d(%87, %v13_conv_2_weight, %v13_conv_2_bias, %v13_conv_2_zero_x, %v13_conv_2_zero_y, %v13_conv_2_scale, padding=[0, 0, 0, 0]) /* from_string */ /* ty=Tensor[(1, 96, 3, 3), int32] */;
  %89 = nn.mcutruncate(%88) /* from_string */ /* ty=Tensor[(1, 96, 3, 3), int8] */;
  %90 = nn.mcuadd(%83, %89, %v13_qadd_zero_x1, %v13_qadd_zero_x2, %v13_qadd_scale_x1, %v13_qadd_scale_x2, %v13_qadd_zero_y, %v13_qadd_scale_y, axis=0) /* from_string */ /* ty=Tensor[(1, 96, 3, 3), int8] */;
  %91 = nn.mcutruncate(%90) /* from_string */ /* ty=Tensor[(1, 96, 3, 3), int8] */;
  %92 = nn.mcuconv2d(%91, %v14_conv_0_weight, %v14_conv_0_bias, %v14_conv_0_zero_x, %v14_conv_0_zero_y, %v14_conv_0_scale, padding=[0, 0, 0, 0]) /* from_string */ /* ty=Tensor[(1, 576, 3, 3), int32] */;
  %93 = nn.mcutruncate(%92) /* from_string */ /* ty=Tensor[(1, 576, 3, 3), int8] */;
  %94 = nn.mcuconv2d(%93, %v14_conv_1_weight, %v14_conv_1_bias, %v14_conv_1_zero_x, %v14_conv_1_zero_y, %v14_conv_1_scale, padding=[1, 1, 1, 1], groups=576) /* from_string */ /* ty=Tensor[(1, 576, 3, 3), int32] */;
  %95 = nn.mcutruncate(%94) /* from_string */ /* ty=Tensor[(1, 576, 3, 3), int8] */;
  %96 = nn.mcuconv2d(%95, %v14_conv_2_weight, %v14_conv_2_bias, %v14_conv_2_zero_x, %v14_conv_2_zero_y, %v14_conv_2_scale, padding=[0, 0, 0, 0]) /* from_string */ /* ty=Tensor[(1, 160, 3, 3), int32] */;
  %97 = nn.mcutruncate(%96) /* from_string */ /* ty=Tensor[(1, 160, 3, 3), int8] */;
  %98 = mcumean(%97, axis=[2, 3], keepdims=True) /* from_string */ /* ty=Tensor[(1, 160, 1, 1), int8] */;
  %99 = nn.mcuconv2d(%98, %v15_weight, %v15_bias, %v15_zero_x, %v15_zero_y, %v15_scale, padding=[0, 0, 0, 0]) /* from_string */ /* ty=Tensor[(1, 100, 1, 1), int32] */;
  %100 = nn.mcutruncate(%99) /* from_string */ /* ty=Tensor[(1, 100, 1, 1), int8] */;
  %101 = reshape(%100, newshape=[0, 0]) /* from_string */ /* ty=Tensor[(1, 100), int8] */;
  %102 = cast(%101, dtype="float32") /* from_string */ /* ty=Tensor[(1, 100), float32] */;
  %103 = nn.log_softmax(%102) /* from_string */ /* ty=Tensor[(1, 100), float32] */;
  %104 = cast(%99, dtype="float32") /* from_string */ /* ty=Tensor[(1, 100, 1, 1), float32] */;
  %105 = greater_equal(%104, -128f /* ty=float32 */) /* from_string */ /* ty=Tensor[(1, 100, 1, 1), bool] */;
  %106 = less_equal(%104, 127f /* ty=float32 */) /* from_string */ /* ty=Tensor[(1, 100, 1, 1), bool] */;
  %107 = ones(shape=[], dtype="float32") /* from_string */ /* ty=float32 */;
  %108 = negative(%107) /* from_string */ /* ty=float32 */;
  %109 = multiply(%108, %label) /* from_string */ /* ty=Tensor[(1, 100), float32] */;
  %110 = sum(%109, axis=[-1], keepdims=True) /* from_string */ /* ty=Tensor[(1, 1), float32] */;
  %111 = exp(%103) /* from_string */ /* ty=Tensor[(1, 100), float32] */;
  %112 = multiply(%110, %111) /* from_string */ /* ty=Tensor[(1, 100), float32] */;
  %113 = subtract(%109, %112) /* from_string */ /* ty=Tensor[(1, 100), float32] */;
  %114 = multiply(%105, %106) /* from_string */ /* ty=Tensor[(1, 100, 1, 1), bool] */;
  %115 = reshape(%113, newshape=[1, 100, 1, 1]) /* from_string */ /* ty=Tensor[(1, 100, 1, 1), float32] */;
  %116 = zeros(shape=[1, 100, 1, 1], dtype="float32") /* from_string */ /* ty=Tensor[(1, 100, 1, 1), float32] */;
  %117 = where(%114, %115, %116) /* from_string */ /* ty=Tensor[(1, 100, 1, 1), float32] */;
  %118 = reshape(%v15_scale, newshape=[1, -1, 1, 1]) /* from_string */ /* ty=Tensor[(1, 100, 1, 1), float32] */;
  %119 = multiply(%117, %118) /* from_string */ /* ty=Tensor[(1, 100, 1, 1), float32] */;
  %120 = cast(%98, dtype="float32") /* from_string */ /* ty=Tensor[(1, 160, 1, 1), float32] */;
  %121 = tile(%119, reps=[1, 160, 1, 1]) /* from_string */ /* ty=Tensor[(1, 16000, 1, 1), float32] */;
  %122 = reshape(%120, newshape=[1, -1, 0, 0]) /* from_string */ /* ty=Tensor[(1, 160, 1, 1), float32] */;
  %123 = reshape(%121, newshape=[-1, 1, 0, 0]) /* from_string */ /* ty=Tensor[(16000, 1, 1, 1), float32] */;
  %124 = nn.conv2d(%122, %123, padding=[0, 0, 0, 0], groups=160) /* from_string */ /* ty=Tensor[(1, 16000, 1, 1), float32] */;
  %125 = reshape(%124, newshape=[1, 160, 100, 1, 1]) /* from_string */ /* ty=Tensor[(1, 160, 100, 1, 1), float32] */;
  %126 = sum(%125, axis=[0]) /* from_string */ /* ty=Tensor[(160, 100, 1, 1), float32] */;
  %127 = cast(%96, dtype="float32") /* from_string */ /* ty=Tensor[(1, 160, 3, 3), float32] */;
  %128 = greater_equal(%127, -128f /* ty=float32 */) /* from_string */ /* ty=Tensor[(1, 160, 3, 3), bool] */;
  %129 = less_equal(%127, 127f /* ty=float32 */) /* from_string */ /* ty=Tensor[(1, 160, 3, 3), bool] */;
  %130 = cast(%v15_weight, dtype="float32") /* from_string */ /* ty=Tensor[(100, 160, 1, 1), float32] */;
  %131 = nn.conv2d_transpose(%119, %130, channels=160, kernel_size=[1, 1], padding=[0, 0, 0, 0], kernel_layout="IOHW") /* from_string */ /* ty=Tensor[(1, 160, 1, 1), float32] */;
  %132 = multiply(%131, 0.111111f /* ty=float32 */) /* from_string */ /* ty=Tensor[(1, 160, 1, 1), float32] */;
  %133 = ones(shape=[1, 160, 3, 3], dtype="float32") /* from_string */ /* ty=Tensor[(1, 160, 3, 3), float32] */;
  %134 = multiply(%128, %129) /* from_string */ /* ty=Tensor[(1, 160, 3, 3), bool] */;
  %135 = multiply(%132, %133) /* from_string */ /* ty=Tensor[(1, 160, 3, 3), float32] */;
  %136 = zeros(shape=[1, 160, 3, 3], dtype="float32") /* from_string */ /* ty=Tensor[(1, 160, 3, 3), float32] */;
  %137 = where(%134, %135, %136) /* from_string */ /* ty=Tensor[(1, 160, 3, 3), float32] */;
  %138 = reshape(%v14_conv_2_scale, newshape=[1, -1, 1, 1]) /* from_string */ /* ty=Tensor[(1, 160, 1, 1), float32] */;
  %139 = multiply(%137, %138) /* from_string */ /* ty=Tensor[(1, 160, 3, 3), float32] */;
  %140 = cast(%95, dtype="float32") /* from_string */ /* ty=Tensor[(1, 576, 3, 3), float32] */;
  %141 = tile(%139, reps=[1, 576, 1, 1]) /* from_string */ /* ty=Tensor[(1, 92160, 3, 3), float32] */;
  %142 = reshape(%140, newshape=[1, -1, 0, 0]) /* from_string */ /* ty=Tensor[(1, 576, 3, 3), float32] */;
  %143 = reshape(%141, newshape=[-1, 1, 0, 0]) /* from_string */ /* ty=Tensor[(92160, 1, 3, 3), float32] */;
  %144 = nn.conv2d(%142, %143, padding=[0, 0, 0, 0], groups=576) /* from_string */ /* ty=Tensor[(1, 92160, 1, 1), float32] */;
  %145 = reshape(%144, newshape=[1, 576, 160, 1, 1]) /* from_string */ /* ty=Tensor[(1, 576, 160, 1, 1), float32] */;
  %146 = sum(%145, axis=[0]) /* from_string */ /* ty=Tensor[(576, 160, 1, 1), float32] */;
  %147 = cast(%94, dtype="float32") /* from_string */ /* ty=Tensor[(1, 576, 3, 3), float32] */;
  %148 = greater_equal(%147, -128f /* ty=float32 */) /* from_string */ /* ty=Tensor[(1, 576, 3, 3), bool] */;
  %149 = less_equal(%147, 127f /* ty=float32 */) /* from_string */ /* ty=Tensor[(1, 576, 3, 3), bool] */;
  %150 = cast(%v14_conv_2_weight, dtype="float32") /* from_string */ /* ty=Tensor[(160, 576, 1, 1), float32] */;
  %151 = multiply(%148, %149) /* from_string */ /* ty=Tensor[(1, 576, 3, 3), bool] */;
  %152 = nn.conv2d_transpose(%139, %150, channels=576, kernel_size=[1, 1], padding=[0, 0, 0, 0], kernel_layout="IOHW") /* from_string */ /* ty=Tensor[(1, 576, 3, 3), float32] */;
  %153 = zeros(shape=[1, 576, 3, 3], dtype="float32") /* from_string */ /* ty=Tensor[(1, 576, 3, 3), float32] */;
  %154 = where(%151, %152, %153) /* from_string */ /* ty=Tensor[(1, 576, 3, 3), float32] */;
  %155 = reshape(%v14_conv_1_scale, newshape=[1, -1, 1, 1]) /* from_string */ /* ty=Tensor[(1, 576, 1, 1), float32] */;
  %156 = multiply(%154, %155) /* from_string */ /* ty=Tensor[(1, 576, 3, 3), float32] */;
  %157 = cast(%93, dtype="float32") /* from_string */ /* ty=Tensor[(1, 576, 3, 3), float32] */;
  %158 = tile(%156, reps=[1, 1, 1, 1]) /* from_string */ /* ty=Tensor[(1, 576, 3, 3), float32] */;
  %159 = reshape(%157, newshape=[1, -1, 0, 0]) /* from_string */ /* ty=Tensor[(1, 576, 3, 3), float32] */;
  %160 = reshape(%158, newshape=[-1, 1, 0, 0]) /* from_string */ /* ty=Tensor[(576, 1, 3, 3), float32] */;
  %161 = nn.conv2d(%159, %160, padding=[1, 1, 1, 1], groups=576) /* from_string */ /* ty=Tensor[(1, 576, 3, 3), float32] */;
  %162 = reshape(%161, newshape=[1, 1, 576, 3, 3]) /* from_string */ /* ty=Tensor[(1, 1, 576, 3, 3), float32] */;
  %163 = sum(%162, axis=[0]) /* from_string */ /* ty=Tensor[(1, 576, 3, 3), float32] */;
  %164 = cast(%92, dtype="float32") /* from_string */ /* ty=Tensor[(1, 576, 3, 3), float32] */;
  %165 = greater_equal(%164, -128f /* ty=float32 */) /* from_string */ /* ty=Tensor[(1, 576, 3, 3), bool] */;
  %166 = less_equal(%164, 127f /* ty=float32 */) /* from_string */ /* ty=Tensor[(1, 576, 3, 3), bool] */;
  %167 = cast(%v14_conv_1_weight, dtype="float32") /* from_string */ /* ty=Tensor[(576, 1, 3, 3), float32] */;
  %168 = multiply(%165, %166) /* from_string */ /* ty=Tensor[(1, 576, 3, 3), bool] */;
  %169 = nn.conv2d_transpose(%156, %167, channels=576, kernel_size=[3, 3], padding=[1, 1, 1, 1], groups=576, kernel_layout="IOHW") /* from_string */ /* ty=Tensor[(1, 576, 3, 3), float32] */;
  %170 = zeros(shape=[1, 576, 3, 3], dtype="float32") /* from_string */ /* ty=Tensor[(1, 576, 3, 3), float32] */;
  %171 = where(%168, %169, %170) /* from_string */ /* ty=Tensor[(1, 576, 3, 3), float32] */;
  %172 = reshape(%v14_conv_0_scale, newshape=[1, -1, 1, 1]) /* from_string */ /* ty=Tensor[(1, 576, 1, 1), float32] */;
  %173 = multiply(%171, %172) /* from_string */ /* ty=Tensor[(1, 576, 3, 3), float32] */;
  %174 = cast(%91, dtype="float32") /* from_string */ /* ty=Tensor[(1, 96, 3, 3), float32] */;
  %175 = tile(%173, reps=[1, 96, 1, 1]) /* from_string */ /* ty=Tensor[(1, 55296, 3, 3), float32] */;
  %176 = reshape(%174, newshape=[1, -1, 0, 0]) /* from_string */ /* ty=Tensor[(1, 96, 3, 3), float32] */;
  %177 = reshape(%175, newshape=[-1, 1, 0, 0]) /* from_string */ /* ty=Tensor[(55296, 1, 3, 3), float32] */;
  %178 = nn.conv2d(%176, %177, padding=[0, 0, 0, 0], groups=96) /* from_string */ /* ty=Tensor[(1, 55296, 1, 1), float32] */;
  %179 = reshape(%178, newshape=[1, 96, 576, 1, 1]) /* from_string */ /* ty=Tensor[(1, 96, 576, 1, 1), float32] */;
  %180 = sum(%179, axis=[0]) /* from_string */ /* ty=Tensor[(96, 576, 1, 1), float32] */;
  %181 = cast(%88, dtype="float32") /* from_string */ /* ty=Tensor[(1, 96, 3, 3), float32] */;
  %182 = greater_equal(%181, -128f /* ty=float32 */) /* from_string */ /* ty=Tensor[(1, 96, 3, 3), bool] */;
  %183 = less_equal(%181, 127f /* ty=float32 */) /* from_string */ /* ty=Tensor[(1, 96, 3, 3), bool] */;
  %184 = cast(%90, dtype="float32") /* from_string */ /* ty=Tensor[(1, 96, 3, 3), float32] */;
  %185 = greater_equal(%184, -128f /* ty=float32 */) /* from_string */ /* ty=Tensor[(1, 96, 3, 3), bool] */;
  %186 = less_equal(%184, 127f /* ty=float32 */) /* from_string */ /* ty=Tensor[(1, 96, 3, 3), bool] */;
  %187 = cast(%v14_conv_0_weight, dtype="float32") /* from_string */ /* ty=Tensor[(576, 96, 1, 1), float32] */;
  %188 = multiply(%185, %186) /* from_string */ /* ty=Tensor[(1, 96, 3, 3), bool] */;
  %189 = nn.conv2d_transpose(%173, %187, channels=96, kernel_size=[1, 1], padding=[0, 0, 0, 0], kernel_layout="IOHW") /* from_string */ /* ty=Tensor[(1, 96, 3, 3), float32] */;
  %190 = zeros(shape=[1, 96, 3, 3], dtype="float32") /* from_string */ /* ty=Tensor[(1, 96, 3, 3), float32] */;
  %191 = where(%188, %189, %190) /* from_string */ /* ty=Tensor[(1, 96, 3, 3), float32] */;
  %192 = reshape(%v13_qadd_scale_y, newshape=[1, -1, 1, 1]) /* from_string */ /* ty=Tensor[(1, 1, 1, 1), float32] */;
  %193 = divide(%191, %192) /* from_string */ /* ty=Tensor[(1, 96, 3, 3), float32] */;
  %194 = reshape(%v13_qadd_scale_x2, newshape=[1, -1, 1, 1]) /* from_string */ /* ty=Tensor[(1, 1, 1, 1), float32] */;
  %195 = multiply(%182, %183) /* from_string */ /* ty=Tensor[(1, 96, 3, 3), bool] */;
  %196 = multiply(%193, %194) /* from_string */ /* ty=Tensor[(1, 96, 3, 3), float32] */;
  %197 = zeros(shape=[1, 96, 3, 3], dtype="float32") /* from_string */ /* ty=Tensor[(1, 96, 3, 3), float32] */;
  %198 = where(%195, %196, %197) /* from_string */ /* ty=Tensor[(1, 96, 3, 3), float32] */;
  %199 = reshape(%v13_conv_2_scale, newshape=[1, -1, 1, 1]) /* from_string */ /* ty=Tensor[(1, 96, 1, 1), float32] */;
  %200 = multiply(%198, %199) /* from_string */ /* ty=Tensor[(1, 96, 3, 3), float32] */;
  %201 = cast(%87, dtype="float32") /* from_string */ /* ty=Tensor[(1, 384, 3, 3), float32] */;
  %202 = tile(%200, reps=[1, 384, 1, 1]) /* from_string */ /* ty=Tensor[(1, 36864, 3, 3), float32] */;
  %203 = reshape(%201, newshape=[1, -1, 0, 0]) /* from_string */ /* ty=Tensor[(1, 384, 3, 3), float32] */;
  %204 = reshape(%202, newshape=[-1, 1, 0, 0]) /* from_string */ /* ty=Tensor[(36864, 1, 3, 3), float32] */;
  %205 = nn.conv2d(%203, %204, padding=[0, 0, 0, 0], groups=384) /* from_string */ /* ty=Tensor[(1, 36864, 1, 1), float32] */;
  %206 = reshape(%205, newshape=[1, 384, 96, 1, 1]) /* from_string */ /* ty=Tensor[(1, 384, 96, 1, 1), float32] */;
  %207 = sum(%206, axis=[0]) /* from_string */ /* ty=Tensor[(384, 96, 1, 1), float32] */;
  %208 = cast(%86, dtype="float32") /* from_string */ /* ty=Tensor[(1, 384, 3, 3), float32] */;
  %209 = greater_equal(%208, -128f /* ty=float32 */) /* from_string */ /* ty=Tensor[(1, 384, 3, 3), bool] */;
  %210 = less_equal(%208, 127f /* ty=float32 */) /* from_string */ /* ty=Tensor[(1, 384, 3, 3), bool] */;
  %211 = cast(%v13_conv_2_weight, dtype="float32") /* from_string */ /* ty=Tensor[(96, 384, 1, 1), float32] */;
  %212 = multiply(%209, %210) /* from_string */ /* ty=Tensor[(1, 384, 3, 3), bool] */;
  %213 = nn.conv2d_transpose(%200, %211, channels=384, kernel_size=[1, 1], padding=[0, 0, 0, 0], kernel_layout="IOHW") /* from_string */ /* ty=Tensor[(1, 384, 3, 3), float32] */;
  %214 = zeros(shape=[1, 384, 3, 3], dtype="float32") /* from_string */ /* ty=Tensor[(1, 384, 3, 3), float32] */;
  %215 = where(%212, %213, %214) /* from_string */ /* ty=Tensor[(1, 384, 3, 3), float32] */;
  %216 = reshape(%v13_conv_1_scale, newshape=[1, -1, 1, 1]) /* from_string */ /* ty=Tensor[(1, 384, 1, 1), float32] */;
  %217 = multiply(%215, %216) /* from_string */ /* ty=Tensor[(1, 384, 3, 3), float32] */;
  %218 = cast(%85, dtype="float32") /* from_string */ /* ty=Tensor[(1, 384, 3, 3), float32] */;
  %219 = tile(%217, reps=[1, 1, 1, 1]) /* from_string */ /* ty=Tensor[(1, 384, 3, 3), float32] */;
  %220 = reshape(%218, newshape=[1, -1, 0, 0]) /* from_string */ /* ty=Tensor[(1, 384, 3, 3), float32] */;
  %221 = reshape(%219, newshape=[-1, 1, 0, 0]) /* from_string */ /* ty=Tensor[(384, 1, 3, 3), float32] */;
  %222 = nn.conv2d(%220, %221, padding=[2, 2, 2, 2], groups=384) /* from_string */ /* ty=Tensor[(1, 384, 5, 5), float32] */;
  %223 = reshape(%222, newshape=[1, 1, 384, 5, 5]) /* from_string */ /* ty=Tensor[(1, 1, 384, 5, 5), float32] */;
  %224 = sum(%223, axis=[0]) /* from_string */ /* ty=Tensor[(1, 384, 5, 5), float32] */;
  %225 = cast(%84, dtype="float32") /* from_string */ /* ty=Tensor[(1, 384, 3, 3), float32] */;
  %226 = greater_equal(%225, -128f /* ty=float32 */) /* from_string */ /* ty=Tensor[(1, 384, 3, 3), bool] */;
  %227 = less_equal(%225, 127f /* ty=float32 */) /* from_string */ /* ty=Tensor[(1, 384, 3, 3), bool] */;
  %228 = cast(%v13_conv_1_weight, dtype="float32") /* from_string */ /* ty=Tensor[(384, 1, 5, 5), float32] */;
  %229 = multiply(%226, %227) /* from_string */ /* ty=Tensor[(1, 384, 3, 3), bool] */;
  %230 = nn.conv2d_transpose(%217, %228, channels=384, kernel_size=[5, 5], padding=[2, 2, 2, 2], groups=384, kernel_layout="IOHW") /* from_string */ /* ty=Tensor[(1, 384, 3, 3), float32] */;
  %231 = zeros(shape=[1, 384, 3, 3], dtype="float32") /* from_string */ /* ty=Tensor[(1, 384, 3, 3), float32] */;
  %232 = where(%229, %230, %231) /* from_string */ /* ty=Tensor[(1, 384, 3, 3), float32] */;
  %233 = reshape(%v13_conv_0_scale, newshape=[1, -1, 1, 1]) /* from_string */ /* ty=Tensor[(1, 384, 1, 1), float32] */;
  %234 = multiply(%232, %233) /* from_string */ /* ty=Tensor[(1, 384, 3, 3), float32] */;
  %235 = cast(%83, dtype="float32") /* from_string */ /* ty=Tensor[(1, 96, 3, 3), float32] */;
  %236 = tile(%234, reps=[1, 96, 1, 1]) /* from_string */ /* ty=Tensor[(1, 36864, 3, 3), float32] */;
  %237 = reshape(%235, newshape=[1, -1, 0, 0]) /* from_string */ /* ty=Tensor[(1, 96, 3, 3), float32] */;
  %238 = reshape(%236, newshape=[-1, 1, 0, 0]) /* from_string */ /* ty=Tensor[(36864, 1, 3, 3), float32] */;
  %239 = nn.conv2d(%237, %238, padding=[0, 0, 0, 0], groups=96) /* from_string */ /* ty=Tensor[(1, 36864, 1, 1), float32] */;
  %240 = reshape(%239, newshape=[1, 96, 384, 1, 1]) /* from_string */ /* ty=Tensor[(1, 96, 384, 1, 1), float32] */;
  %241 = sum(%240, axis=[0]) /* from_string */ /* ty=Tensor[(96, 384, 1, 1), float32] */;
  %242 = cast(%80, dtype="float32") /* from_string */ /* ty=Tensor[(1, 96, 3, 3), float32] */;
  %243 = greater_equal(%242, -128f /* ty=float32 */) /* from_string */ /* ty=Tensor[(1, 96, 3, 3), bool] */;
  %244 = less_equal(%242, 127f /* ty=float32 */) /* from_string */ /* ty=Tensor[(1, 96, 3, 3), bool] */;
  %245 = cast(%82, dtype="float32") /* from_string */ /* ty=Tensor[(1, 96, 3, 3), float32] */;
  %246 = greater_equal(%245, -128f /* ty=float32 */) /* from_string */ /* ty=Tensor[(1, 96, 3, 3), bool] */;
  %247 = less_equal(%245, 127f /* ty=float32 */) /* from_string */ /* ty=Tensor[(1, 96, 3, 3), bool] */;
  %248 = cast(%v13_conv_0_weight, dtype="float32") /* from_string */ /* ty=Tensor[(384, 96, 1, 1), float32] */;
  %249 = multiply(%246, %247) /* from_string */ /* ty=Tensor[(1, 96, 3, 3), bool] */;
  %250 = nn.conv2d_transpose(%234, %248, channels=96, kernel_size=[1, 1], padding=[0, 0, 0, 0], kernel_layout="IOHW") /* from_string */ /* ty=Tensor[(1, 96, 3, 3), float32] */;
  %251 = zeros(shape=[1, 96, 3, 3], dtype="float32") /* from_string */ /* ty=Tensor[(1, 96, 3, 3), float32] */;
  %252 = where(%249, %250, %251) /* from_string */ /* ty=Tensor[(1, 96, 3, 3), float32] */;
  %253 = reshape(%v12_qadd_scale_y, newshape=[1, -1, 1, 1]) /* from_string */ /* ty=Tensor[(1, 1, 1, 1), float32] */;
  %254 = divide(%252, %253) /* from_string */ /* ty=Tensor[(1, 96, 3, 3), float32] */;
  %255 = reshape(%v12_qadd_scale_x2, newshape=[1, -1, 1, 1]) /* from_string */ /* ty=Tensor[(1, 1, 1, 1), float32] */;
  %256 = multiply(%243, %244) /* from_string */ /* ty=Tensor[(1, 96, 3, 3), bool] */;
  %257 = multiply(%254, %255) /* from_string */ /* ty=Tensor[(1, 96, 3, 3), float32] */;
  %258 = zeros(shape=[1, 96, 3, 3], dtype="float32") /* from_string */ /* ty=Tensor[(1, 96, 3, 3), float32] */;
  %259 = where(%256, %257, %258) /* from_string */ /* ty=Tensor[(1, 96, 3, 3), float32] */;
  %260 = reshape(%v12_conv_2_scale, newshape=[1, -1, 1, 1]) /* from_string */ /* ty=Tensor[(1, 96, 1, 1), float32] */;
  %261 = multiply(%259, %260) /* from_string */ /* ty=Tensor[(1, 96, 3, 3), float32] */;
  %262 = cast(%79, dtype="float32") /* from_string */ /* ty=Tensor[(1, 384, 3, 3), float32] */;
  %263 = tile(%261, reps=[1, 384, 1, 1]) /* from_string */ /* ty=Tensor[(1, 36864, 3, 3), float32] */;
  %264 = reshape(%262, newshape=[1, -1, 0, 0]) /* from_string */ /* ty=Tensor[(1, 384, 3, 3), float32] */;
  %265 = reshape(%263, newshape=[-1, 1, 0, 0]) /* from_string */ /* ty=Tensor[(36864, 1, 3, 3), float32] */;
  %266 = nn.conv2d(%264, %265, padding=[0, 0, 0, 0], groups=384) /* from_string */ /* ty=Tensor[(1, 36864, 1, 1), float32] */;
  %267 = reshape(%266, newshape=[1, 384, 96, 1, 1]) /* from_string */ /* ty=Tensor[(1, 384, 96, 1, 1), float32] */;
  %268 = sum(%267, axis=[0]) /* from_string */ /* ty=Tensor[(384, 96, 1, 1), float32] */;
  %269 = cast(%78, dtype="float32") /* from_string */ /* ty=Tensor[(1, 384, 3, 3), float32] */;
  %270 = greater_equal(%269, -128f /* ty=float32 */) /* from_string */ /* ty=Tensor[(1, 384, 3, 3), bool] */;
  %271 = less_equal(%269, 127f /* ty=float32 */) /* from_string */ /* ty=Tensor[(1, 384, 3, 3), bool] */;
  %272 = cast(%v12_conv_2_weight, dtype="float32") /* from_string */ /* ty=Tensor[(96, 384, 1, 1), float32] */;
  %273 = multiply(%270, %271) /* from_string */ /* ty=Tensor[(1, 384, 3, 3), bool] */;
  %274 = nn.conv2d_transpose(%261, %272, channels=384, kernel_size=[1, 1], padding=[0, 0, 0, 0], kernel_layout="IOHW") /* from_string */ /* ty=Tensor[(1, 384, 3, 3), float32] */;
  %275 = zeros(shape=[1, 384, 3, 3], dtype="float32") /* from_string */ /* ty=Tensor[(1, 384, 3, 3), float32] */;
  %276 = where(%273, %274, %275) /* from_string */ /* ty=Tensor[(1, 384, 3, 3), float32] */;
  %277 = reshape(%v12_conv_1_scale, newshape=[1, -1, 1, 1]) /* from_string */ /* ty=Tensor[(1, 384, 1, 1), float32] */;
  %278 = multiply(%276, %277) /* from_string */ /* ty=Tensor[(1, 384, 3, 3), float32] */;
  %279 = cast(%77, dtype="float32") /* from_string */ /* ty=Tensor[(1, 384, 3, 3), float32] */;
  %280 = tile(%278, reps=[1, 1, 1, 1]) /* from_string */ /* ty=Tensor[(1, 384, 3, 3), float32] */;
  %281 = reshape(%279, newshape=[1, -1, 0, 0]) /* from_string */ /* ty=Tensor[(1, 384, 3, 3), float32] */;
  %282 = reshape(%280, newshape=[-1, 1, 0, 0]) /* from_string */ /* ty=Tensor[(384, 1, 3, 3), float32] */;
  %283 = nn.conv2d(%281, %282, padding=[2, 2, 2, 2], groups=384) /* from_string */ /* ty=Tensor[(1, 384, 5, 5), float32] */;
  %284 = reshape(%283, newshape=[1, 1, 384, 5, 5]) /* from_string */ /* ty=Tensor[(1, 1, 384, 5, 5), float32] */;
  %285 = sum(%284, axis=[0]) /* from_string */ /* ty=Tensor[(1, 384, 5, 5), float32] */;
  %286 = cast(%76, dtype="float32") /* from_string */ /* ty=Tensor[(1, 384, 3, 3), float32] */;
  %287 = greater_equal(%286, -128f /* ty=float32 */) /* from_string */ /* ty=Tensor[(1, 384, 3, 3), bool] */;
  %288 = less_equal(%286, 127f /* ty=float32 */) /* from_string */ /* ty=Tensor[(1, 384, 3, 3), bool] */;
  %289 = cast(%v12_conv_1_weight, dtype="float32") /* from_string */ /* ty=Tensor[(384, 1, 5, 5), float32] */;
  %290 = multiply(%287, %288) /* from_string */ /* ty=Tensor[(1, 384, 3, 3), bool] */;
  %291 = nn.conv2d_transpose(%278, %289, channels=384, kernel_size=[5, 5], padding=[2, 2, 2, 2], groups=384, kernel_layout="IOHW") /* from_string */ /* ty=Tensor[(1, 384, 3, 3), float32] */;
  %292 = zeros(shape=[1, 384, 3, 3], dtype="float32") /* from_string */ /* ty=Tensor[(1, 384, 3, 3), float32] */;
  %293 = where(%290, %291, %292) /* from_string */ /* ty=Tensor[(1, 384, 3, 3), float32] */;
  %294 = reshape(%v12_conv_0_scale, newshape=[1, -1, 1, 1]) /* from_string */ /* ty=Tensor[(1, 384, 1, 1), float32] */;
  %295 = multiply(%293, %294) /* from_string */ /* ty=Tensor[(1, 384, 3, 3), float32] */;
  %296 = cast(%75, dtype="float32") /* from_string */ /* ty=Tensor[(1, 96, 3, 3), float32] */;
  %297 = tile(%295, reps=[1, 96, 1, 1]) /* from_string */ /* ty=Tensor[(1, 36864, 3, 3), float32] */;
  %298 = reshape(%296, newshape=[1, -1, 0, 0]) /* from_string */ /* ty=Tensor[(1, 96, 3, 3), float32] */;
  %299 = reshape(%297, newshape=[-1, 1, 0, 0]) /* from_string */ /* ty=Tensor[(36864, 1, 3, 3), float32] */;
  %300 = nn.conv2d(%298, %299, padding=[0, 0, 0, 0], groups=96) /* from_string */ /* ty=Tensor[(1, 36864, 1, 1), float32] */;
  %301 = reshape(%300, newshape=[1, 96, 384, 1, 1]) /* from_string */ /* ty=Tensor[(1, 96, 384, 1, 1), float32] */;
  %302 = sum(%301, axis=[0]) /* from_string */ /* ty=Tensor[(96, 384, 1, 1), float32] */;
  %303 = cast(%74, dtype="float32") /* from_string */ /* ty=Tensor[(1, 96, 3, 3), float32] */;
  %304 = greater_equal(%303, -128f /* ty=float32 */) /* from_string */ /* ty=Tensor[(1, 96, 3, 3), bool] */;
  %305 = less_equal(%303, 127f /* ty=float32 */) /* from_string */ /* ty=Tensor[(1, 96, 3, 3), bool] */;
  %306 = cast(%v12_conv_0_weight, dtype="float32") /* from_string */ /* ty=Tensor[(384, 96, 1, 1), float32] */;
  %307 = multiply(%304, %305) /* from_string */ /* ty=Tensor[(1, 96, 3, 3), bool] */;
  %308 = nn.conv2d_transpose(%295, %306, channels=96, kernel_size=[1, 1], padding=[0, 0, 0, 0], kernel_layout="IOHW") /* from_string */ /* ty=Tensor[(1, 96, 3, 3), float32] */;
  %309 = zeros(shape=[1, 96, 3, 3], dtype="float32") /* from_string */ /* ty=Tensor[(1, 96, 3, 3), float32] */;
  %310 = where(%307, %308, %309) /* from_string */ /* ty=Tensor[(1, 96, 3, 3), float32] */;
  %311 = reshape(%v11_conv_2_scale, newshape=[1, -1, 1, 1]) /* from_string */ /* ty=Tensor[(1, 96, 1, 1), float32] */;
  %312 = multiply(%310, %311) /* from_string */ /* ty=Tensor[(1, 96, 3, 3), float32] */;
  %313 = cast(%73, dtype="float32") /* from_string */ /* ty=Tensor[(1, 240, 3, 3), float32] */;
  %314 = tile(%312, reps=[1, 240, 1, 1]) /* from_string */ /* ty=Tensor[(1, 23040, 3, 3), float32] */;
  %315 = reshape(%313, newshape=[1, -1, 0, 0]) /* from_string */ /* ty=Tensor[(1, 240, 3, 3), float32] */;
  %316 = reshape(%314, newshape=[-1, 1, 0, 0]) /* from_string */ /* ty=Tensor[(23040, 1, 3, 3), float32] */;
  %317 = nn.conv2d(%315, %316, padding=[0, 0, 0, 0], groups=240) /* from_string */ /* ty=Tensor[(1, 23040, 1, 1), float32] */;
  %318 = reshape(%317, newshape=[1, 240, 96, 1, 1]) /* from_string */ /* ty=Tensor[(1, 240, 96, 1, 1), float32] */;
  %319 = sum(%318, axis=[0]) /* from_string */ /* ty=Tensor[(240, 96, 1, 1), float32] */;
  %320 = cast(%72, dtype="float32") /* from_string */ /* ty=Tensor[(1, 240, 3, 3), float32] */;
  %321 = greater_equal(%320, -128f /* ty=float32 */) /* from_string */ /* ty=Tensor[(1, 240, 3, 3), bool] */;
  %322 = less_equal(%320, 127f /* ty=float32 */) /* from_string */ /* ty=Tensor[(1, 240, 3, 3), bool] */;
  %323 = cast(%v11_conv_2_weight, dtype="float32") /* from_string */ /* ty=Tensor[(96, 240, 1, 1), float32] */;
  %324 = multiply(%321, %322) /* from_string */ /* ty=Tensor[(1, 240, 3, 3), bool] */;
  %325 = nn.conv2d_transpose(%312, %323, channels=240, kernel_size=[1, 1], padding=[0, 0, 0, 0], kernel_layout="IOHW") /* from_string */ /* ty=Tensor[(1, 240, 3, 3), float32] */;
  %326 = zeros(shape=[1, 240, 3, 3], dtype="float32") /* from_string */ /* ty=Tensor[(1, 240, 3, 3), float32] */;
  %327 = where(%324, %325, %326) /* from_string */ /* ty=Tensor[(1, 240, 3, 3), float32] */;
  %328 = reshape(%v11_conv_1_scale, newshape=[1, -1, 1, 1]) /* from_string */ /* ty=Tensor[(1, 240, 1, 1), float32] */;
  %329 = multiply(%327, %328) /* from_string */ /* ty=Tensor[(1, 240, 3, 3), float32] */;
  %330 = cast(%71, dtype="float32") /* from_string */ /* ty=Tensor[(1, 240, 5, 5), float32] */;
  %331 = tile(%329, reps=[1, 1, 1, 1]) /* from_string */ /* ty=Tensor[(1, 240, 3, 3), float32] */;
  %332 = reshape(%330, newshape=[1, -1, 0, 0]) /* from_string */ /* ty=Tensor[(1, 240, 5, 5), float32] */;
  %333 = reshape(%331, newshape=[-1, 1, 0, 0]) /* from_string */ /* ty=Tensor[(240, 1, 3, 3), float32] */;
  %334 = nn.conv2d(%332, %333, padding=[3, 3, 3, 3], dilation=[2, 2], groups=240) /* from_string */ /* ty=Tensor[(1, 240, 7, 7), float32] */;
  %335 = reshape(%334, newshape=[1, 1, 240, 7, 7]) /* from_string */ /* ty=Tensor[(1, 1, 240, 7, 7), float32] */;
  %336 = sum(%335, axis=[0]) /* from_string */ /* ty=Tensor[(1, 240, 7, 7), float32] */;
  %337 = cast(%70, dtype="float32") /* from_string */ /* ty=Tensor[(1, 240, 5, 5), float32] */;
  %338 = greater_equal(%337, -128f /* ty=float32 */) /* from_string */ /* ty=Tensor[(1, 240, 5, 5), bool] */;
  %339 = less_equal(%337, 127f /* ty=float32 */) /* from_string */ /* ty=Tensor[(1, 240, 5, 5), bool] */;
  %340 = cast(%v11_conv_1_weight, dtype="float32") /* from_string */ /* ty=Tensor[(240, 1, 7, 7), float32] */;
  %341 = multiply(%338, %339) /* from_string */ /* ty=Tensor[(1, 240, 5, 5), bool] */;
  %342 = nn.conv2d_transpose(%329, %340, channels=240, kernel_size=[7, 7], strides=[2, 2], padding=[3, 3, 3, 3], groups=240, kernel_layout="IOHW") /* from_string */ /* ty=Tensor[(1, 240, 5, 5), float32] */;
  %343 = zeros(shape=[1, 240, 5, 5], dtype="float32") /* from_string */ /* ty=Tensor[(1, 240, 5, 5), float32] */;
  %344 = where(%341, %342, %343) /* from_string */ /* ty=Tensor[(1, 240, 5, 5), float32] */;
  %345 = reshape(%v11_conv_0_scale, newshape=[1, -1, 1, 1]) /* from_string */ /* ty=Tensor[(1, 240, 1, 1), float32] */;
  %346 = multiply(%344, %345) /* from_string */ /* ty=Tensor[(1, 240, 5, 5), float32] */;
  %347 = cast(%69, dtype="float32") /* from_string */ /* ty=Tensor[(1, 48, 5, 5), float32] */;
  %348 = tile(%346, reps=[1, 48, 1, 1]) /* from_string */ /* ty=Tensor[(1, 11520, 5, 5), float32] */;
  %349 = reshape(%347, newshape=[1, -1, 0, 0]) /* from_string */ /* ty=Tensor[(1, 48, 5, 5), float32] */;
  %350 = reshape(%348, newshape=[-1, 1, 0, 0]) /* from_string */ /* ty=Tensor[(11520, 1, 5, 5), float32] */;
  %351 = nn.conv2d(%349, %350, padding=[0, 0, 0, 0], groups=48) /* from_string */ /* ty=Tensor[(1, 11520, 1, 1), float32] */;
  %352 = reshape(%351, newshape=[1, 48, 240, 1, 1]) /* from_string */ /* ty=Tensor[(1, 48, 240, 1, 1), float32] */;
  %353 = sum(%352, axis=[0]) /* from_string */ /* ty=Tensor[(48, 240, 1, 1), float32] */;
  %354 = cast(%66, dtype="float32") /* from_string */ /* ty=Tensor[(1, 48, 5, 5), float32] */;
  %355 = greater_equal(%354, -128f /* ty=float32 */) /* from_string */ /* ty=Tensor[(1, 48, 5, 5), bool] */;
  %356 = less_equal(%354, 127f /* ty=float32 */) /* from_string */ /* ty=Tensor[(1, 48, 5, 5), bool] */;
  %357 = cast(%68, dtype="float32") /* from_string */ /* ty=Tensor[(1, 48, 5, 5), float32] */;
  %358 = greater_equal(%357, -128f /* ty=float32 */) /* from_string */ /* ty=Tensor[(1, 48, 5, 5), bool] */;
  %359 = less_equal(%357, 127f /* ty=float32 */) /* from_string */ /* ty=Tensor[(1, 48, 5, 5), bool] */;
  %360 = cast(%v11_conv_0_weight, dtype="float32") /* from_string */ /* ty=Tensor[(240, 48, 1, 1), float32] */;
  %361 = multiply(%358, %359) /* from_string */ /* ty=Tensor[(1, 48, 5, 5), bool] */;
  %362 = nn.conv2d_transpose(%346, %360, channels=48, kernel_size=[1, 1], padding=[0, 0, 0, 0], kernel_layout="IOHW") /* from_string */ /* ty=Tensor[(1, 48, 5, 5), float32] */;
  %363 = zeros(shape=[1, 48, 5, 5], dtype="float32") /* from_string */ /* ty=Tensor[(1, 48, 5, 5), float32] */;
  %364 = where(%361, %362, %363) /* from_string */ /* ty=Tensor[(1, 48, 5, 5), float32] */;
  %365 = reshape(%v10_qadd_scale_y, newshape=[1, -1, 1, 1]) /* from_string */ /* ty=Tensor[(1, 1, 1, 1), float32] */;
  %366 = divide(%364, %365) /* from_string */ /* ty=Tensor[(1, 48, 5, 5), float32] */;
  %367 = reshape(%v10_qadd_scale_x2, newshape=[1, -1, 1, 1]) /* from_string */ /* ty=Tensor[(1, 1, 1, 1), float32] */;
  %368 = multiply(%355, %356) /* from_string */ /* ty=Tensor[(1, 48, 5, 5), bool] */;
  %369 = multiply(%366, %367) /* from_string */ /* ty=Tensor[(1, 48, 5, 5), float32] */;
  %370 = zeros(shape=[1, 48, 5, 5], dtype="float32") /* from_string */ /* ty=Tensor[(1, 48, 5, 5), float32] */;
  %371 = where(%368, %369, %370) /* from_string */ /* ty=Tensor[(1, 48, 5, 5), float32] */;
  %372 = reshape(%v10_conv_2_scale, newshape=[1, -1, 1, 1]) /* from_string */ /* ty=Tensor[(1, 48, 1, 1), float32] */;
  %373 = multiply(%371, %372) /* from_string */ /* ty=Tensor[(1, 48, 5, 5), float32] */;
  %374 = cast(%65, dtype="float32") /* from_string */ /* ty=Tensor[(1, 192, 5, 5), float32] */;
  %375 = tile(%373, reps=[1, 192, 1, 1]) /* from_string */ /* ty=Tensor[(1, 9216, 5, 5), float32] */;
  %376 = reshape(%374, newshape=[1, -1, 0, 0]) /* from_string */ /* ty=Tensor[(1, 192, 5, 5), float32] */;
  %377 = reshape(%375, newshape=[-1, 1, 0, 0]) /* from_string */ /* ty=Tensor[(9216, 1, 5, 5), float32] */;
  %378 = nn.conv2d(%376, %377, padding=[0, 0, 0, 0], groups=192) /* from_string */ /* ty=Tensor[(1, 9216, 1, 1), float32] */;
  %379 = reshape(%378, newshape=[1, 192, 48, 1, 1]) /* from_string */ /* ty=Tensor[(1, 192, 48, 1, 1), float32] */;
  %380 = sum(%379, axis=[0]) /* from_string */ /* ty=Tensor[(192, 48, 1, 1), float32] */;
  %381 = cast(%64, dtype="float32") /* from_string */ /* ty=Tensor[(1, 192, 5, 5), float32] */;
  %382 = greater_equal(%381, -128f /* ty=float32 */) /* from_string */ /* ty=Tensor[(1, 192, 5, 5), bool] */;
  %383 = less_equal(%381, 127f /* ty=float32 */) /* from_string */ /* ty=Tensor[(1, 192, 5, 5), bool] */;
  %384 = cast(%v10_conv_2_weight, dtype="float32") /* from_string */ /* ty=Tensor[(48, 192, 1, 1), float32] */;
  %385 = multiply(%382, %383) /* from_string */ /* ty=Tensor[(1, 192, 5, 5), bool] */;
  %386 = nn.conv2d_transpose(%373, %384, channels=192, kernel_size=[1, 1], padding=[0, 0, 0, 0], kernel_layout="IOHW") /* from_string */ /* ty=Tensor[(1, 192, 5, 5), float32] */;
  %387 = zeros(shape=[1, 192, 5, 5], dtype="float32") /* from_string */ /* ty=Tensor[(1, 192, 5, 5), float32] */;
  %388 = where(%385, %386, %387) /* from_string */ /* ty=Tensor[(1, 192, 5, 5), float32] */;
  %389 = reshape(%v10_conv_1_scale, newshape=[1, -1, 1, 1]) /* from_string */ /* ty=Tensor[(1, 192, 1, 1), float32] */;
  %390 = multiply(%388, %389) /* from_string */ /* ty=Tensor[(1, 192, 5, 5), float32] */;
  %391 = cast(%63, dtype="float32") /* from_string */ /* ty=Tensor[(1, 192, 5, 5), float32] */;
  %392 = tile(%390, reps=[1, 1, 1, 1]) /* from_string */ /* ty=Tensor[(1, 192, 5, 5), float32] */;
  %393 = reshape(%391, newshape=[1, -1, 0, 0]) /* from_string */ /* ty=Tensor[(1, 192, 5, 5), float32] */;
  %394 = reshape(%392, newshape=[-1, 1, 0, 0]) /* from_string */ /* ty=Tensor[(192, 1, 5, 5), float32] */;
  %395 = nn.conv2d(%393, %394, padding=[1, 1, 1, 1], groups=192) /* from_string */ /* ty=Tensor[(1, 192, 3, 3), float32] */;
  %396 = reshape(%395, newshape=[1, 1, 192, 3, 3]) /* from_string */ /* ty=Tensor[(1, 1, 192, 3, 3), float32] */;
  %397 = sum(%396, axis=[0]) /* from_string */ /* ty=Tensor[(1, 192, 3, 3), float32] */;
  %398 = cast(%62, dtype="float32") /* from_string */ /* ty=Tensor[(1, 192, 5, 5), float32] */;
  %399 = greater_equal(%398, -128f /* ty=float32 */) /* from_string */ /* ty=Tensor[(1, 192, 5, 5), bool] */;
  %400 = less_equal(%398, 127f /* ty=float32 */) /* from_string */ /* ty=Tensor[(1, 192, 5, 5), bool] */;
  %401 = cast(%v10_conv_1_weight, dtype="float32") /* from_string */ /* ty=Tensor[(192, 1, 3, 3), float32] */;
  %402 = multiply(%399, %400) /* from_string */ /* ty=Tensor[(1, 192, 5, 5), bool] */;
  %403 = nn.conv2d_transpose(%390, %401, channels=192, kernel_size=[3, 3], padding=[1, 1, 1, 1], groups=192, kernel_layout="IOHW") /* from_string */ /* ty=Tensor[(1, 192, 5, 5), float32] */;
  %404 = zeros(shape=[1, 192, 5, 5], dtype="float32") /* from_string */ /* ty=Tensor[(1, 192, 5, 5), float32] */;
  %405 = where(%402, %403, %404) /* from_string */ /* ty=Tensor[(1, 192, 5, 5), float32] */;
  %406 = reshape(%v10_conv_0_scale, newshape=[1, -1, 1, 1]) /* from_string */ /* ty=Tensor[(1, 192, 1, 1), float32] */;
  %407 = multiply(%405, %406) /* from_string */ /* ty=Tensor[(1, 192, 5, 5), float32] */;
  %408 = cast(%61, dtype="float32") /* from_string */ /* ty=Tensor[(1, 48, 5, 5), float32] */;
  %409 = tile(%407, reps=[1, 48, 1, 1]) /* from_string */ /* ty=Tensor[(1, 9216, 5, 5), float32] */;
  %410 = reshape(%408, newshape=[1, -1, 0, 0]) /* from_string */ /* ty=Tensor[(1, 48, 5, 5), float32] */;
  %411 = reshape(%409, newshape=[-1, 1, 0, 0]) /* from_string */ /* ty=Tensor[(9216, 1, 5, 5), float32] */;
  %412 = nn.conv2d(%410, %411, padding=[0, 0, 0, 0], groups=48) /* from_string */ /* ty=Tensor[(1, 9216, 1, 1), float32] */;
  %413 = reshape(%412, newshape=[1, 48, 192, 1, 1]) /* from_string */ /* ty=Tensor[(1, 48, 192, 1, 1), float32] */;
  %414 = sum(%413, axis=[0]) /* from_string */ /* ty=Tensor[(48, 192, 1, 1), float32] */;
  %415 = cast(%58, dtype="float32") /* from_string */ /* ty=Tensor[(1, 48, 5, 5), float32] */;
  %416 = greater_equal(%415, -128f /* ty=float32 */) /* from_string */ /* ty=Tensor[(1, 48, 5, 5), bool] */;
  %417 = less_equal(%415, 127f /* ty=float32 */) /* from_string */ /* ty=Tensor[(1, 48, 5, 5), bool] */;
  %418 = cast(%60, dtype="float32") /* from_string */ /* ty=Tensor[(1, 48, 5, 5), float32] */;
  %419 = greater_equal(%418, -128f /* ty=float32 */) /* from_string */ /* ty=Tensor[(1, 48, 5, 5), bool] */;
  %420 = less_equal(%418, 127f /* ty=float32 */) /* from_string */ /* ty=Tensor[(1, 48, 5, 5), bool] */;
  %421 = cast(%v10_conv_0_weight, dtype="float32") /* from_string */ /* ty=Tensor[(192, 48, 1, 1), float32] */;
  %422 = multiply(%419, %420) /* from_string */ /* ty=Tensor[(1, 48, 5, 5), bool] */;
  %423 = nn.conv2d_transpose(%407, %421, channels=48, kernel_size=[1, 1], padding=[0, 0, 0, 0], kernel_layout="IOHW") /* from_string */ /* ty=Tensor[(1, 48, 5, 5), float32] */;
  %424 = zeros(shape=[1, 48, 5, 5], dtype="float32") /* from_string */ /* ty=Tensor[(1, 48, 5, 5), float32] */;
  %425 = where(%422, %423, %424) /* from_string */ /* ty=Tensor[(1, 48, 5, 5), float32] */;
  %426 = reshape(%v9_qadd_scale_y, newshape=[1, -1, 1, 1]) /* from_string */ /* ty=Tensor[(1, 1, 1, 1), float32] */;
  %427 = divide(%425, %426) /* from_string */ /* ty=Tensor[(1, 48, 5, 5), float32] */;
  %428 = reshape(%v9_qadd_scale_x2, newshape=[1, -1, 1, 1]) /* from_string */ /* ty=Tensor[(1, 1, 1, 1), float32] */;
  %429 = multiply(%416, %417) /* from_string */ /* ty=Tensor[(1, 48, 5, 5), bool] */;
  %430 = multiply(%427, %428) /* from_string */ /* ty=Tensor[(1, 48, 5, 5), float32] */;
  %431 = zeros(shape=[1, 48, 5, 5], dtype="float32") /* from_string */ /* ty=Tensor[(1, 48, 5, 5), float32] */;
  %432 = where(%429, %430, %431) /* from_string */ /* ty=Tensor[(1, 48, 5, 5), float32] */;
  %433 = reshape(%v9_conv_2_scale, newshape=[1, -1, 1, 1]) /* from_string */ /* ty=Tensor[(1, 48, 1, 1), float32] */;
  %434 = multiply(%432, %433) /* from_string */ /* ty=Tensor[(1, 48, 5, 5), float32] */;
  %435 = cast(%57, dtype="float32") /* from_string */ /* ty=Tensor[(1, 144, 5, 5), float32] */;
  %436 = tile(%434, reps=[1, 144, 1, 1]) /* from_string */ /* ty=Tensor[(1, 6912, 5, 5), float32] */;
  %437 = reshape(%435, newshape=[1, -1, 0, 0]) /* from_string */ /* ty=Tensor[(1, 144, 5, 5), float32] */;
  %438 = reshape(%436, newshape=[-1, 1, 0, 0]) /* from_string */ /* ty=Tensor[(6912, 1, 5, 5), float32] */;
  %439 = nn.conv2d(%437, %438, padding=[0, 0, 0, 0], groups=144) /* from_string */ /* ty=Tensor[(1, 6912, 1, 1), float32] */;
  %440 = reshape(%439, newshape=[1, 144, 48, 1, 1]) /* from_string */ /* ty=Tensor[(1, 144, 48, 1, 1), float32] */;
  %441 = sum(%440, axis=[0]) /* from_string */ /* ty=Tensor[(144, 48, 1, 1), float32] */;
  %442 = cast(%56, dtype="float32") /* from_string */ /* ty=Tensor[(1, 144, 5, 5), float32] */;
  %443 = greater_equal(%442, -128f /* ty=float32 */) /* from_string */ /* ty=Tensor[(1, 144, 5, 5), bool] */;
  %444 = less_equal(%442, 127f /* ty=float32 */) /* from_string */ /* ty=Tensor[(1, 144, 5, 5), bool] */;
  %445 = cast(%v9_conv_2_weight, dtype="float32") /* from_string */ /* ty=Tensor[(48, 144, 1, 1), float32] */;
  %446 = multiply(%443, %444) /* from_string */ /* ty=Tensor[(1, 144, 5, 5), bool] */;
  %447 = nn.conv2d_transpose(%434, %445, channels=144, kernel_size=[1, 1], padding=[0, 0, 0, 0], kernel_layout="IOHW") /* from_string */ /* ty=Tensor[(1, 144, 5, 5), float32] */;
  %448 = zeros(shape=[1, 144, 5, 5], dtype="float32") /* from_string */ /* ty=Tensor[(1, 144, 5, 5), float32] */;
  %449 = where(%446, %447, %448) /* from_string */ /* ty=Tensor[(1, 144, 5, 5), float32] */;
  %450 = reshape(%v9_conv_1_scale, newshape=[1, -1, 1, 1]) /* from_string */ /* ty=Tensor[(1, 144, 1, 1), float32] */;
  %451 = multiply(%449, %450) /* from_string */ /* ty=Tensor[(1, 144, 5, 5), float32] */;
  %452 = cast(%55, dtype="float32") /* from_string */ /* ty=Tensor[(1, 144, 5, 5), float32] */;
  %453 = tile(%451, reps=[1, 1, 1, 1]) /* from_string */ /* ty=Tensor[(1, 144, 5, 5), float32] */;
  %454 = reshape(%452, newshape=[1, -1, 0, 0]) /* from_string */ /* ty=Tensor[(1, 144, 5, 5), float32] */;
  %455 = reshape(%453, newshape=[-1, 1, 0, 0]) /* from_string */ /* ty=Tensor[(144, 1, 5, 5), float32] */;
  %456 = nn.conv2d(%454, %455, padding=[1, 1, 1, 1], groups=144) /* from_string */ /* ty=Tensor[(1, 144, 3, 3), float32] */;
  %457 = reshape(%456, newshape=[1, 1, 144, 3, 3]) /* from_string */ /* ty=Tensor[(1, 1, 144, 3, 3), float32] */;
  %458 = sum(%457, axis=[0]) /* from_string */ /* ty=Tensor[(1, 144, 3, 3), float32] */;
  %459 = cast(%54, dtype="float32") /* from_string */ /* ty=Tensor[(1, 144, 5, 5), float32] */;
  %460 = greater_equal(%459, -128f /* ty=float32 */) /* from_string */ /* ty=Tensor[(1, 144, 5, 5), bool] */;
  %461 = less_equal(%459, 127f /* ty=float32 */) /* from_string */ /* ty=Tensor[(1, 144, 5, 5), bool] */;
  %462 = cast(%v9_conv_1_weight, dtype="float32") /* from_string */ /* ty=Tensor[(144, 1, 3, 3), float32] */;
  %463 = multiply(%460, %461) /* from_string */ /* ty=Tensor[(1, 144, 5, 5), bool] */;
  %464 = nn.conv2d_transpose(%451, %462, channels=144, kernel_size=[3, 3], padding=[1, 1, 1, 1], groups=144, kernel_layout="IOHW") /* from_string */ /* ty=Tensor[(1, 144, 5, 5), float32] */;
  %465 = zeros(shape=[1, 144, 5, 5], dtype="float32") /* from_string */ /* ty=Tensor[(1, 144, 5, 5), float32] */;
  %466 = where(%463, %464, %465) /* from_string */ /* ty=Tensor[(1, 144, 5, 5), float32] */;
  %467 = reshape(%v9_conv_0_scale, newshape=[1, -1, 1, 1]) /* from_string */ /* ty=Tensor[(1, 144, 1, 1), float32] */;
  %468 = multiply(%466, %467) /* from_string */ /* ty=Tensor[(1, 144, 5, 5), float32] */;
  %469 = cast(%53, dtype="float32") /* from_string */ /* ty=Tensor[(1, 48, 5, 5), float32] */;
  %470 = tile(%468, reps=[1, 48, 1, 1]) /* from_string */ /* ty=Tensor[(1, 6912, 5, 5), float32] */;
  %471 = reshape(%469, newshape=[1, -1, 0, 0]) /* from_string */ /* ty=Tensor[(1, 48, 5, 5), float32] */;
  %472 = reshape(%470, newshape=[-1, 1, 0, 0]) /* from_string */ /* ty=Tensor[(6912, 1, 5, 5), float32] */;
  %473 = nn.conv2d(%471, %472, padding=[0, 0, 0, 0], groups=48) /* from_string */ /* ty=Tensor[(1, 6912, 1, 1), float32] */;
  %474 = reshape(%473, newshape=[1, 48, 144, 1, 1]) /* from_string */ /* ty=Tensor[(1, 48, 144, 1, 1), float32] */;
  %475 = sum(%474, axis=[0]) /* from_string */ /* ty=Tensor[(48, 144, 1, 1), float32] */;
  %476 = cast(%52, dtype="float32") /* from_string */ /* ty=Tensor[(1, 48, 5, 5), float32] */;
  %477 = greater_equal(%476, -128f /* ty=float32 */) /* from_string */ /* ty=Tensor[(1, 48, 5, 5), bool] */;
  %478 = less_equal(%476, 127f /* ty=float32 */) /* from_string */ /* ty=Tensor[(1, 48, 5, 5), bool] */;
  %479 = cast(%v9_conv_0_weight, dtype="float32") /* from_string */ /* ty=Tensor[(144, 48, 1, 1), float32] */;
  %480 = multiply(%477, %478) /* from_string */ /* ty=Tensor[(1, 48, 5, 5), bool] */;
  %481 = nn.conv2d_transpose(%468, %479, channels=48, kernel_size=[1, 1], padding=[0, 0, 0, 0], kernel_layout="IOHW") /* from_string */ /* ty=Tensor[(1, 48, 5, 5), float32] */;
  %482 = zeros(shape=[1, 48, 5, 5], dtype="float32") /* from_string */ /* ty=Tensor[(1, 48, 5, 5), float32] */;
  %483 = where(%480, %481, %482) /* from_string */ /* ty=Tensor[(1, 48, 5, 5), float32] */;
  %484 = reshape(%v8_conv_2_scale, newshape=[1, -1, 1, 1]) /* from_string */ /* ty=Tensor[(1, 48, 1, 1), float32] */;
  %485 = multiply(%483, %484) /* from_string */ /* ty=Tensor[(1, 48, 5, 5), float32] */;
  %486 = cast(%51, dtype="float32") /* from_string */ /* ty=Tensor[(1, 160, 5, 5), float32] */;
  %487 = tile(%485, reps=[1, 160, 1, 1]) /* from_string */ /* ty=Tensor[(1, 7680, 5, 5), float32] */;
  %488 = reshape(%486, newshape=[1, -1, 0, 0]) /* from_string */ /* ty=Tensor[(1, 160, 5, 5), float32] */;
  %489 = reshape(%487, newshape=[-1, 1, 0, 0]) /* from_string */ /* ty=Tensor[(7680, 1, 5, 5), float32] */;
  %490 = nn.conv2d(%488, %489, padding=[0, 0, 0, 0], groups=160) /* from_string */ /* ty=Tensor[(1, 7680, 1, 1), float32] */;
  %491 = reshape(%490, newshape=[1, 160, 48, 1, 1]) /* from_string */ /* ty=Tensor[(1, 160, 48, 1, 1), float32] */;
  %492 = sum(%491, axis=[0]) /* from_string */ /* ty=Tensor[(160, 48, 1, 1), float32] */;
  %493 = cast(%50, dtype="float32") /* from_string */ /* ty=Tensor[(1, 160, 5, 5), float32] */;
  %494 = greater_equal(%493, -128f /* ty=float32 */) /* from_string */ /* ty=Tensor[(1, 160, 5, 5), bool] */;
  %495 = less_equal(%493, 127f /* ty=float32 */) /* from_string */ /* ty=Tensor[(1, 160, 5, 5), bool] */;
  %496 = cast(%v8_conv_2_weight, dtype="float32") /* from_string */ /* ty=Tensor[(48, 160, 1, 1), float32] */;
  %497 = multiply(%494, %495) /* from_string */ /* ty=Tensor[(1, 160, 5, 5), bool] */;
  %498 = nn.conv2d_transpose(%485, %496, channels=160, kernel_size=[1, 1], padding=[0, 0, 0, 0], kernel_layout="IOHW") /* from_string */ /* ty=Tensor[(1, 160, 5, 5), float32] */;
  %499 = zeros(shape=[1, 160, 5, 5], dtype="float32") /* from_string */ /* ty=Tensor[(1, 160, 5, 5), float32] */;
  %500 = where(%497, %498, %499) /* from_string */ /* ty=Tensor[(1, 160, 5, 5), float32] */;
  %501 = reshape(%v8_conv_1_scale, newshape=[1, -1, 1, 1]) /* from_string */ /* ty=Tensor[(1, 160, 1, 1), float32] */;
  %502 = multiply(%500, %501) /* from_string */ /* ty=Tensor[(1, 160, 5, 5), float32] */;
  %503 = cast(%49, dtype="float32") /* from_string */ /* ty=Tensor[(1, 160, 5, 5), float32] */;
  %504 = tile(%502, reps=[1, 1, 1, 1]) /* from_string */ /* ty=Tensor[(1, 160, 5, 5), float32] */;
  %505 = reshape(%503, newshape=[1, -1, 0, 0]) /* from_string */ /* ty=Tensor[(1, 160, 5, 5), float32] */;
  %506 = reshape(%504, newshape=[-1, 1, 0, 0]) /* from_string */ /* ty=Tensor[(160, 1, 5, 5), float32] */;
  %507 = nn.conv2d(%505, %506, padding=[2, 2, 2, 2], groups=160) /* from_string */ /* ty=Tensor[(1, 160, 5, 5), float32] */;
  %508 = reshape(%507, newshape=[1, 1, 160, 5, 5]) /* from_string */ /* ty=Tensor[(1, 1, 160, 5, 5), float32] */;
  %509 = sum(%508, axis=[0]) /* from_string */ /* ty=Tensor[(1, 160, 5, 5), float32] */;
  %510 = cast(%48, dtype="float32") /* from_string */ /* ty=Tensor[(1, 160, 5, 5), float32] */;
  %511 = greater_equal(%510, -128f /* ty=float32 */) /* from_string */ /* ty=Tensor[(1, 160, 5, 5), bool] */;
  %512 = less_equal(%510, 127f /* ty=float32 */) /* from_string */ /* ty=Tensor[(1, 160, 5, 5), bool] */;
  %513 = cast(%v8_conv_1_weight, dtype="float32") /* from_string */ /* ty=Tensor[(160, 1, 5, 5), float32] */;
  %514 = multiply(%511, %512) /* from_string */ /* ty=Tensor[(1, 160, 5, 5), bool] */;
  %515 = nn.conv2d_transpose(%502, %513, channels=160, kernel_size=[5, 5], padding=[2, 2, 2, 2], groups=160, kernel_layout="IOHW") /* from_string */ /* ty=Tensor[(1, 160, 5, 5), float32] */;
  %516 = zeros(shape=[1, 160, 5, 5], dtype="float32") /* from_string */ /* ty=Tensor[(1, 160, 5, 5), float32] */;
  %517 = where(%514, %515, %516) /* from_string */ /* ty=Tensor[(1, 160, 5, 5), float32] */;
  %518 = reshape(%v8_conv_0_scale, newshape=[1, -1, 1, 1]) /* from_string */ /* ty=Tensor[(1, 160, 1, 1), float32] */;
  %519 = multiply(%517, %518) /* from_string */ /* ty=Tensor[(1, 160, 5, 5), float32] */;
  %520 = cast(%47, dtype="float32") /* from_string */ /* ty=Tensor[(1, 40, 5, 5), float32] */;
  %521 = tile(%519, reps=[1, 40, 1, 1]) /* from_string */ /* ty=Tensor[(1, 6400, 5, 5), float32] */;
  %522 = reshape(%520, newshape=[1, -1, 0, 0]) /* from_string */ /* ty=Tensor[(1, 40, 5, 5), float32] */;
  %523 = reshape(%521, newshape=[-1, 1, 0, 0]) /* from_string */ /* ty=Tensor[(6400, 1, 5, 5), float32] */;
  %524 = nn.conv2d(%522, %523, padding=[0, 0, 0, 0], groups=40) /* from_string */ /* ty=Tensor[(1, 6400, 1, 1), float32] */;
  %525 = reshape(%524, newshape=[1, 40, 160, 1, 1]) /* from_string */ /* ty=Tensor[(1, 40, 160, 1, 1), float32] */;
  %526 = sum(%525, axis=[0]) /* from_string */ /* ty=Tensor[(40, 160, 1, 1), float32] */;
  %527 = cast(%44, dtype="float32") /* from_string */ /* ty=Tensor[(1, 40, 5, 5), float32] */;
  %528 = greater_equal(%527, -128f /* ty=float32 */) /* from_string */ /* ty=Tensor[(1, 40, 5, 5), bool] */;
  %529 = less_equal(%527, 127f /* ty=float32 */) /* from_string */ /* ty=Tensor[(1, 40, 5, 5), bool] */;
  %530 = cast(%46, dtype="float32") /* from_string */ /* ty=Tensor[(1, 40, 5, 5), float32] */;
  %531 = greater_equal(%530, -128f /* ty=float32 */) /* from_string */ /* ty=Tensor[(1, 40, 5, 5), bool] */;
  %532 = less_equal(%530, 127f /* ty=float32 */) /* from_string */ /* ty=Tensor[(1, 40, 5, 5), bool] */;
  %533 = cast(%v8_conv_0_weight, dtype="float32") /* from_string */ /* ty=Tensor[(160, 40, 1, 1), float32] */;
  %534 = multiply(%531, %532) /* from_string */ /* ty=Tensor[(1, 40, 5, 5), bool] */;
  %535 = nn.conv2d_transpose(%519, %533, channels=40, kernel_size=[1, 1], padding=[0, 0, 0, 0], kernel_layout="IOHW") /* from_string */ /* ty=Tensor[(1, 40, 5, 5), float32] */;
  %536 = zeros(shape=[1, 40, 5, 5], dtype="float32") /* from_string */ /* ty=Tensor[(1, 40, 5, 5), float32] */;
  %537 = where(%534, %535, %536) /* from_string */ /* ty=Tensor[(1, 40, 5, 5), float32] */;
  %538 = reshape(%v7_qadd_scale_y, newshape=[1, -1, 1, 1]) /* from_string */ /* ty=Tensor[(1, 1, 1, 1), float32] */;
  %539 = divide(%537, %538) /* from_string */ /* ty=Tensor[(1, 40, 5, 5), float32] */;
  %540 = reshape(%v7_qadd_scale_x2, newshape=[1, -1, 1, 1]) /* from_string */ /* ty=Tensor[(1, 1, 1, 1), float32] */;
  %541 = multiply(%528, %529) /* from_string */ /* ty=Tensor[(1, 40, 5, 5), bool] */;
  %542 = multiply(%539, %540) /* from_string */ /* ty=Tensor[(1, 40, 5, 5), float32] */;
  %543 = zeros(shape=[1, 40, 5, 5], dtype="float32") /* from_string */ /* ty=Tensor[(1, 40, 5, 5), float32] */;
  %544 = where(%541, %542, %543) /* from_string */ /* ty=Tensor[(1, 40, 5, 5), float32] */;
  %545 = reshape(%v7_conv_2_scale, newshape=[1, -1, 1, 1]) /* from_string */ /* ty=Tensor[(1, 40, 1, 1), float32] */;
  %546 = multiply(%544, %545) /* from_string */ /* ty=Tensor[(1, 40, 5, 5), float32] */;
  %547 = cast(%43, dtype="float32") /* from_string */ /* ty=Tensor[(1, 160, 5, 5), float32] */;
  %548 = tile(%546, reps=[1, 160, 1, 1]) /* from_string */ /* ty=Tensor[(1, 6400, 5, 5), float32] */;
  %549 = reshape(%547, newshape=[1, -1, 0, 0]) /* from_string */ /* ty=Tensor[(1, 160, 5, 5), float32] */;
  %550 = reshape(%548, newshape=[-1, 1, 0, 0]) /* from_string */ /* ty=Tensor[(6400, 1, 5, 5), float32] */;
  %551 = nn.conv2d(%549, %550, padding=[0, 0, 0, 0], groups=160) /* from_string */ /* ty=Tensor[(1, 6400, 1, 1), float32] */;
  %552 = reshape(%551, newshape=[1, 160, 40, 1, 1]) /* from_string */ /* ty=Tensor[(1, 160, 40, 1, 1), float32] */;
  %553 = sum(%552, axis=[0]) /* from_string */ /* ty=Tensor[(160, 40, 1, 1), float32] */;
  %554 = cast(%42, dtype="float32") /* from_string */ /* ty=Tensor[(1, 160, 5, 5), float32] */;
  %555 = greater_equal(%554, -128f /* ty=float32 */) /* from_string */ /* ty=Tensor[(1, 160, 5, 5), bool] */;
  %556 = less_equal(%554, 127f /* ty=float32 */) /* from_string */ /* ty=Tensor[(1, 160, 5, 5), bool] */;
  %557 = cast(%v7_conv_2_weight, dtype="float32") /* from_string */ /* ty=Tensor[(40, 160, 1, 1), float32] */;
  %558 = multiply(%555, %556) /* from_string */ /* ty=Tensor[(1, 160, 5, 5), bool] */;
  %559 = nn.conv2d_transpose(%546, %557, channels=160, kernel_size=[1, 1], padding=[0, 0, 0, 0], kernel_layout="IOHW") /* from_string */ /* ty=Tensor[(1, 160, 5, 5), float32] */;
  %560 = zeros(shape=[1, 160, 5, 5], dtype="float32") /* from_string */ /* ty=Tensor[(1, 160, 5, 5), float32] */;
  %561 = where(%558, %559, %560) /* from_string */ /* ty=Tensor[(1, 160, 5, 5), float32] */;
  %562 = reshape(%v7_conv_1_scale, newshape=[1, -1, 1, 1]) /* from_string */ /* ty=Tensor[(1, 160, 1, 1), float32] */;
  %563 = multiply(%561, %562) /* from_string */ /* ty=Tensor[(1, 160, 5, 5), float32] */;
  %564 = cast(%41, dtype="float32") /* from_string */ /* ty=Tensor[(1, 160, 5, 5), float32] */;
  %565 = tile(%563, reps=[1, 1, 1, 1]) /* from_string */ /* ty=Tensor[(1, 160, 5, 5), float32] */;
  %566 = reshape(%564, newshape=[1, -1, 0, 0]) /* from_string */ /* ty=Tensor[(1, 160, 5, 5), float32] */;
  %567 = reshape(%565, newshape=[-1, 1, 0, 0]) /* from_string */ /* ty=Tensor[(160, 1, 5, 5), float32] */;
  %568 = nn.conv2d(%566, %567, padding=[3, 3, 3, 3], groups=160) /* from_string */ /* ty=Tensor[(1, 160, 7, 7), float32] */;
  %569 = reshape(%568, newshape=[1, 1, 160, 7, 7]) /* from_string */ /* ty=Tensor[(1, 1, 160, 7, 7), float32] */;
  %570 = sum(%569, axis=[0]) /* from_string */ /* ty=Tensor[(1, 160, 7, 7), float32] */;
  %571 = cast(%40, dtype="float32") /* from_string */ /* ty=Tensor[(1, 160, 5, 5), float32] */;
  %572 = greater_equal(%571, -128f /* ty=float32 */) /* from_string */ /* ty=Tensor[(1, 160, 5, 5), bool] */;
  %573 = less_equal(%571, 127f /* ty=float32 */) /* from_string */ /* ty=Tensor[(1, 160, 5, 5), bool] */;
  %574 = cast(%v7_conv_1_weight, dtype="float32") /* from_string */ /* ty=Tensor[(160, 1, 7, 7), float32] */;
  %575 = multiply(%572, %573) /* from_string */ /* ty=Tensor[(1, 160, 5, 5), bool] */;
  %576 = nn.conv2d_transpose(%563, %574, channels=160, kernel_size=[7, 7], padding=[3, 3, 3, 3], groups=160, kernel_layout="IOHW") /* from_string */ /* ty=Tensor[(1, 160, 5, 5), float32] */;
  %577 = zeros(shape=[1, 160, 5, 5], dtype="float32") /* from_string */ /* ty=Tensor[(1, 160, 5, 5), float32] */;
  %578 = where(%575, %576, %577) /* from_string */ /* ty=Tensor[(1, 160, 5, 5), float32] */;
  %579 = reshape(%v7_conv_0_scale, newshape=[1, -1, 1, 1]) /* from_string */ /* ty=Tensor[(1, 160, 1, 1), float32] */;
  %580 = multiply(%578, %579) /* from_string */ /* ty=Tensor[(1, 160, 5, 5), float32] */;
  %581 = cast(%39, dtype="float32") /* from_string */ /* ty=Tensor[(1, 40, 5, 5), float32] */;
  %582 = tile(%580, reps=[1, 40, 1, 1]) /* from_string */ /* ty=Tensor[(1, 6400, 5, 5), float32] */;
  %583 = reshape(%581, newshape=[1, -1, 0, 0]) /* from_string */ /* ty=Tensor[(1, 40, 5, 5), float32] */;
  %584 = reshape(%582, newshape=[-1, 1, 0, 0]) /* from_string */ /* ty=Tensor[(6400, 1, 5, 5), float32] */;
  %585 = nn.conv2d(%583, %584, padding=[0, 0, 0, 0], groups=40) /* from_string */ /* ty=Tensor[(1, 6400, 1, 1), float32] */;
  %586 = reshape(%585, newshape=[1, 40, 160, 1, 1]) /* from_string */ /* ty=Tensor[(1, 40, 160, 1, 1), float32] */;
  %587 = sum(%586, axis=[0]) /* from_string */ /* ty=Tensor[(40, 160, 1, 1), float32] */;
  %588 = cast(%38, dtype="float32") /* from_string */ /* ty=Tensor[(1, 40, 5, 5), float32] */;
  %589 = greater_equal(%588, -128f /* ty=float32 */) /* from_string */ /* ty=Tensor[(1, 40, 5, 5), bool] */;
  %590 = less_equal(%588, 127f /* ty=float32 */) /* from_string */ /* ty=Tensor[(1, 40, 5, 5), bool] */;
  %591 = cast(%v7_conv_0_weight, dtype="float32") /* from_string */ /* ty=Tensor[(160, 40, 1, 1), float32] */;
  %592 = multiply(%589, %590) /* from_string */ /* ty=Tensor[(1, 40, 5, 5), bool] */;
  %593 = nn.conv2d_transpose(%580, %591, channels=40, kernel_size=[1, 1], padding=[0, 0, 0, 0], kernel_layout="IOHW") /* from_string */ /* ty=Tensor[(1, 40, 5, 5), float32] */;
  %594 = zeros(shape=[1, 40, 5, 5], dtype="float32") /* from_string */ /* ty=Tensor[(1, 40, 5, 5), float32] */;
  %595 = where(%592, %593, %594) /* from_string */ /* ty=Tensor[(1, 40, 5, 5), float32] */;
  %596 = reshape(%v6_conv_2_scale, newshape=[1, -1, 1, 1]) /* from_string */ /* ty=Tensor[(1, 40, 1, 1), float32] */;
  %597 = multiply(%595, %596) /* from_string */ /* ty=Tensor[(1, 40, 5, 5), float32] */;
  %598 = cast(%37, dtype="float32") /* from_string */ /* ty=Tensor[(1, 120, 5, 5), float32] */;
  %599 = tile(%597, reps=[1, 120, 1, 1]) /* from_string */ /* ty=Tensor[(1, 4800, 5, 5), float32] */;
  %600 = reshape(%598, newshape=[1, -1, 0, 0]) /* from_string */ /* ty=Tensor[(1, 120, 5, 5), float32] */;
  %601 = reshape(%599, newshape=[-1, 1, 0, 0]) /* from_string */ /* ty=Tensor[(4800, 1, 5, 5), float32] */;
  %602 = nn.conv2d(%600, %601, padding=[0, 0, 0, 0], groups=120) /* from_string */ /* ty=Tensor[(1, 4800, 1, 1), float32] */;
  %603 = reshape(%602, newshape=[1, 120, 40, 1, 1]) /* from_string */ /* ty=Tensor[(1, 120, 40, 1, 1), float32] */;
  %604 = sum(%603, axis=[0]) /* from_string */ /* ty=Tensor[(120, 40, 1, 1), float32] */;
  %605 = cast(%36, dtype="float32") /* from_string */ /* ty=Tensor[(1, 120, 5, 5), float32] */;
  %606 = greater_equal(%605, -128f /* ty=float32 */) /* from_string */ /* ty=Tensor[(1, 120, 5, 5), bool] */;
  %607 = less_equal(%605, 127f /* ty=float32 */) /* from_string */ /* ty=Tensor[(1, 120, 5, 5), bool] */;
  %608 = cast(%v6_conv_2_weight, dtype="float32") /* from_string */ /* ty=Tensor[(40, 120, 1, 1), float32] */;
  %609 = multiply(%606, %607) /* from_string */ /* ty=Tensor[(1, 120, 5, 5), bool] */;
  %610 = nn.conv2d_transpose(%597, %608, channels=120, kernel_size=[1, 1], padding=[0, 0, 0, 0], kernel_layout="IOHW") /* from_string */ /* ty=Tensor[(1, 120, 5, 5), float32] */;
  %611 = zeros(shape=[1, 120, 5, 5], dtype="float32") /* from_string */ /* ty=Tensor[(1, 120, 5, 5), float32] */;
  %612 = where(%609, %610, %611) /* from_string */ /* ty=Tensor[(1, 120, 5, 5), float32] */;
  %613 = reshape(%v6_conv_1_scale, newshape=[1, -1, 1, 1]) /* from_string */ /* ty=Tensor[(1, 120, 1, 1), float32] */;
  %614 = multiply(%612, %613) /* from_string */ /* ty=Tensor[(1, 120, 5, 5), float32] */;
  %615 = cast(%35, dtype="float32") /* from_string */ /* ty=Tensor[(1, 120, 10, 10), float32] */;
  %616 = tile(%614, reps=[1, 1, 1, 1]) /* from_string */ /* ty=Tensor[(1, 120, 5, 5), float32] */;
  %617 = reshape(%615, newshape=[1, -1, 0, 0]) /* from_string */ /* ty=Tensor[(1, 120, 10, 10), float32] */;
  %618 = reshape(%616, newshape=[-1, 1, 0, 0]) /* from_string */ /* ty=Tensor[(120, 1, 5, 5), float32] */;
  %619 = nn.conv2d(%617, %618, padding=[1, 1, 1, 1], dilation=[2, 2], groups=120) /* from_string */ /* ty=Tensor[(1, 120, 4, 4), float32] */;
  %620 = reshape(%619, newshape=[1, 1, 120, 4, 4]) /* from_string */ /* ty=Tensor[(1, 1, 120, 4, 4), float32] */;
  %621 = sum(%620, axis=[0]) /* from_string */ /* ty=Tensor[(1, 120, 4, 4), float32] */;
  %622 = transpose(%621, axes=[1, 0, 2, 3]) /* from_string */ /* ty=Tensor[(120, 1, 4, 4), float32] */;
  %623 = cast(%34, dtype="float32") /* from_string */ /* ty=Tensor[(1, 120, 10, 10), float32] */;
  %624 = greater_equal(%623, -128f /* ty=float32 */) /* from_string */ /* ty=Tensor[(1, 120, 10, 10), bool] */;
  %625 = less_equal(%623, 127f /* ty=float32 */) /* from_string */ /* ty=Tensor[(1, 120, 10, 10), bool] */;
  %626 = cast(%v6_conv_1_weight, dtype="float32") /* from_string */ /* ty=Tensor[(120, 1, 3, 3), float32] */;
  %627 = multiply(%624, %625) /* from_string */ /* ty=Tensor[(1, 120, 10, 10), bool] */;
  %628 = nn.conv2d_transpose(%614, %626, channels=120, kernel_size=[3, 3], strides=[2, 2], output_padding=[1, 1], padding=[1, 1, 1, 1], groups=120, kernel_layout="IOHW") /* from_string */ /* ty=Tensor[(1, 120, 10, 10), float32] */;
  %629 = zeros(shape=[1, 120, 10, 10], dtype="float32") /* from_string */ /* ty=Tensor[(1, 120, 10, 10), float32] */;
  %630 = where(%627, %628, %629) /* from_string */ /* ty=Tensor[(1, 120, 10, 10), float32] */;
  %631 = reshape(%v6_conv_0_scale, newshape=[1, -1, 1, 1]) /* from_string */ /* ty=Tensor[(1, 120, 1, 1), float32] */;
  %632 = multiply(%630, %631) /* from_string */ /* ty=Tensor[(1, 120, 10, 10), float32] */;
  %633 = cast(%33, dtype="float32") /* from_string */ /* ty=Tensor[(1, 24, 10, 10), float32] */;
  %634 = tile(%632, reps=[1, 24, 1, 1]) /* from_string */ /* ty=Tensor[(1, 2880, 10, 10), float32] */;
  %635 = reshape(%633, newshape=[1, -1, 0, 0]) /* from_string */ /* ty=Tensor[(1, 24, 10, 10), float32] */;
  %636 = reshape(%634, newshape=[-1, 1, 0, 0]) /* from_string */ /* ty=Tensor[(2880, 1, 10, 10), float32] */;
  %637 = nn.conv2d(%635, %636, padding=[0, 0, 0, 0], groups=24) /* from_string */ /* ty=Tensor[(1, 2880, 1, 1), float32] */;
  %638 = reshape(%637, newshape=[1, 24, 120, 1, 1]) /* from_string */ /* ty=Tensor[(1, 24, 120, 1, 1), float32] */;
  %639 = sum(%638, axis=[0]) /* from_string */ /* ty=Tensor[(24, 120, 1, 1), float32] */;
  %640 = cast(%30, dtype="float32") /* from_string */ /* ty=Tensor[(1, 24, 10, 10), float32] */;
  %641 = greater_equal(%640, -128f /* ty=float32 */) /* from_string */ /* ty=Tensor[(1, 24, 10, 10), bool] */;
  %642 = less_equal(%640, 127f /* ty=float32 */) /* from_string */ /* ty=Tensor[(1, 24, 10, 10), bool] */;
  %643 = cast(%32, dtype="float32") /* from_string */ /* ty=Tensor[(1, 24, 10, 10), float32] */;
  %644 = greater_equal(%643, -128f /* ty=float32 */) /* from_string */ /* ty=Tensor[(1, 24, 10, 10), bool] */;
  %645 = less_equal(%643, 127f /* ty=float32 */) /* from_string */ /* ty=Tensor[(1, 24, 10, 10), bool] */;
  %646 = cast(%v6_conv_0_weight, dtype="float32") /* from_string */ /* ty=Tensor[(120, 24, 1, 1), float32] */;
  %647 = multiply(%644, %645) /* from_string */ /* ty=Tensor[(1, 24, 10, 10), bool] */;
  %648 = nn.conv2d_transpose(%632, %646, channels=24, kernel_size=[1, 1], padding=[0, 0, 0, 0], kernel_layout="IOHW") /* from_string */ /* ty=Tensor[(1, 24, 10, 10), float32] */;
  %649 = zeros(shape=[1, 24, 10, 10], dtype="float32") /* from_string */ /* ty=Tensor[(1, 24, 10, 10), float32] */;
  %650 = where(%647, %648, %649) /* from_string */ /* ty=Tensor[(1, 24, 10, 10), float32] */;
  %651 = reshape(%v5_qadd_scale_y, newshape=[1, -1, 1, 1]) /* from_string */ /* ty=Tensor[(1, 1, 1, 1), float32] */;
  %652 = divide(%650, %651) /* from_string */ /* ty=Tensor[(1, 24, 10, 10), float32] */;
  %653 = reshape(%v5_qadd_scale_x2, newshape=[1, -1, 1, 1]) /* from_string */ /* ty=Tensor[(1, 1, 1, 1), float32] */;
  %654 = multiply(%641, %642) /* from_string */ /* ty=Tensor[(1, 24, 10, 10), bool] */;
  %655 = multiply(%652, %653) /* from_string */ /* ty=Tensor[(1, 24, 10, 10), float32] */;
  %656 = zeros(shape=[1, 24, 10, 10], dtype="float32") /* from_string */ /* ty=Tensor[(1, 24, 10, 10), float32] */;
  %657 = where(%654, %655, %656) /* from_string */ /* ty=Tensor[(1, 24, 10, 10), float32] */;
  %658 = reshape(%v5_conv_2_scale, newshape=[1, -1, 1, 1]) /* from_string */ /* ty=Tensor[(1, 24, 1, 1), float32] */;
  %659 = multiply(%657, %658) /* from_string */ /* ty=Tensor[(1, 24, 10, 10), float32] */;
  %660 = cast(%29, dtype="float32") /* from_string */ /* ty=Tensor[(1, 120, 10, 10), float32] */;
  %661 = tile(%659, reps=[1, 120, 1, 1]) /* from_string */ /* ty=Tensor[(1, 2880, 10, 10), float32] */;
  %662 = reshape(%660, newshape=[1, -1, 0, 0]) /* from_string */ /* ty=Tensor[(1, 120, 10, 10), float32] */;
  %663 = reshape(%661, newshape=[-1, 1, 0, 0]) /* from_string */ /* ty=Tensor[(2880, 1, 10, 10), float32] */;
  %664 = nn.conv2d(%662, %663, padding=[0, 0, 0, 0], groups=120) /* from_string */ /* ty=Tensor[(1, 2880, 1, 1), float32] */;
  %665 = reshape(%664, newshape=[1, 120, 24, 1, 1]) /* from_string */ /* ty=Tensor[(1, 120, 24, 1, 1), float32] */;
  %666 = sum(%665, axis=[0]) /* from_string */ /* ty=Tensor[(120, 24, 1, 1), float32] */;
  %667 = cast(%28, dtype="float32") /* from_string */ /* ty=Tensor[(1, 120, 10, 10), float32] */;
  %668 = greater_equal(%667, -128f /* ty=float32 */) /* from_string */ /* ty=Tensor[(1, 120, 10, 10), bool] */;
  %669 = less_equal(%667, 127f /* ty=float32 */) /* from_string */ /* ty=Tensor[(1, 120, 10, 10), bool] */;
  %670 = cast(%v5_conv_2_weight, dtype="float32") /* from_string */ /* ty=Tensor[(24, 120, 1, 1), float32] */;
  %671 = multiply(%668, %669) /* from_string */ /* ty=Tensor[(1, 120, 10, 10), bool] */;
  %672 = nn.conv2d_transpose(%659, %670, channels=120, kernel_size=[1, 1], padding=[0, 0, 0, 0], kernel_layout="IOHW") /* from_string */ /* ty=Tensor[(1, 120, 10, 10), float32] */;
  %673 = zeros(shape=[1, 120, 10, 10], dtype="float32") /* from_string */ /* ty=Tensor[(1, 120, 10, 10), float32] */;
  %674 = where(%671, %672, %673) /* from_string */ /* ty=Tensor[(1, 120, 10, 10), float32] */;
  %675 = reshape(%v5_conv_1_scale, newshape=[1, -1, 1, 1]) /* from_string */ /* ty=Tensor[(1, 120, 1, 1), float32] */;
  %676 = multiply(%674, %675) /* from_string */ /* ty=Tensor[(1, 120, 10, 10), float32] */;
  %677 = cast(%27, dtype="float32") /* from_string */ /* ty=Tensor[(1, 120, 10, 10), float32] */;
  %678 = tile(%676, reps=[1, 1, 1, 1]) /* from_string */ /* ty=Tensor[(1, 120, 10, 10), float32] */;
  %679 = reshape(%677, newshape=[1, -1, 0, 0]) /* from_string */ /* ty=Tensor[(1, 120, 10, 10), float32] */;
  %680 = reshape(%678, newshape=[-1, 1, 0, 0]) /* from_string */ /* ty=Tensor[(120, 1, 10, 10), float32] */;
  %681 = nn.conv2d(%679, %680, padding=[1, 1, 1, 1], groups=120) /* from_string */ /* ty=Tensor[(1, 120, 3, 3), float32] */;
  %682 = reshape(%681, newshape=[1, 1, 120, 3, 3]) /* from_string */ /* ty=Tensor[(1, 1, 120, 3, 3), float32] */;
  %683 = sum(%682, axis=[0]) /* from_string */ /* ty=Tensor[(1, 120, 3, 3), float32] */;
  %684 = cast(%26, dtype="float32") /* from_string */ /* ty=Tensor[(1, 120, 10, 10), float32] */;
  %685 = greater_equal(%684, -128f /* ty=float32 */) /* from_string */ /* ty=Tensor[(1, 120, 10, 10), bool] */;
  %686 = less_equal(%684, 127f /* ty=float32 */) /* from_string */ /* ty=Tensor[(1, 120, 10, 10), bool] */;
  %687 = cast(%v5_conv_1_weight, dtype="float32") /* from_string */ /* ty=Tensor[(120, 1, 3, 3), float32] */;
  %688 = multiply(%685, %686) /* from_string */ /* ty=Tensor[(1, 120, 10, 10), bool] */;
  %689 = nn.conv2d_transpose(%676, %687, channels=120, kernel_size=[3, 3], padding=[1, 1, 1, 1], groups=120, kernel_layout="IOHW") /* from_string */ /* ty=Tensor[(1, 120, 10, 10), float32] */;
  %690 = zeros(shape=[1, 120, 10, 10], dtype="float32") /* from_string */ /* ty=Tensor[(1, 120, 10, 10), float32] */;
  %691 = where(%688, %689, %690) /* from_string */ /* ty=Tensor[(1, 120, 10, 10), float32] */;
  %692 = reshape(%v5_conv_0_scale, newshape=[1, -1, 1, 1]) /* from_string */ /* ty=Tensor[(1, 120, 1, 1), float32] */;
  %693 = multiply(%691, %692) /* from_string */ /* ty=Tensor[(1, 120, 10, 10), float32] */;
  %694 = cast(%25, dtype="float32") /* from_string */ /* ty=Tensor[(1, 24, 10, 10), float32] */;
  %695 = tile(%693, reps=[1, 24, 1, 1]) /* from_string */ /* ty=Tensor[(1, 2880, 10, 10), float32] */;
  %696 = reshape(%694, newshape=[1, -1, 0, 0]) /* from_string */ /* ty=Tensor[(1, 24, 10, 10), float32] */;
  %697 = reshape(%695, newshape=[-1, 1, 0, 0]) /* from_string */ /* ty=Tensor[(2880, 1, 10, 10), float32] */;
  %698 = nn.conv2d(%696, %697, padding=[0, 0, 0, 0], groups=24) /* from_string */ /* ty=Tensor[(1, 2880, 1, 1), float32] */;
  %699 = reshape(%698, newshape=[1, 24, 120, 1, 1]) /* from_string */ /* ty=Tensor[(1, 24, 120, 1, 1), float32] */;
  %700 = sum(%699, axis=[0]) /* from_string */ /* ty=Tensor[(24, 120, 1, 1), float32] */;
  %701 = cast(%24, dtype="float32") /* from_string */ /* ty=Tensor[(1, 24, 10, 10), float32] */;
  %702 = greater_equal(%701, -128f /* ty=float32 */) /* from_string */ /* ty=Tensor[(1, 24, 10, 10), bool] */;
  %703 = less_equal(%701, 127f /* ty=float32 */) /* from_string */ /* ty=Tensor[(1, 24, 10, 10), bool] */;
  %704 = cast(%v5_conv_0_weight, dtype="float32") /* from_string */ /* ty=Tensor[(120, 24, 1, 1), float32] */;
  %705 = multiply(%702, %703) /* from_string */ /* ty=Tensor[(1, 24, 10, 10), bool] */;
  %706 = nn.conv2d_transpose(%693, %704, channels=24, kernel_size=[1, 1], padding=[0, 0, 0, 0], kernel_layout="IOHW") /* from_string */ /* ty=Tensor[(1, 24, 10, 10), float32] */;
  %707 = zeros(shape=[1, 24, 10, 10], dtype="float32") /* from_string */ /* ty=Tensor[(1, 24, 10, 10), float32] */;
  %708 = where(%705, %706, %707) /* from_string */ /* ty=Tensor[(1, 24, 10, 10), float32] */;
  %709 = reshape(%v4_conv_2_scale, newshape=[1, -1, 1, 1]) /* from_string */ /* ty=Tensor[(1, 24, 1, 1), float32] */;
  %710 = multiply(%708, %709) /* from_string */ /* ty=Tensor[(1, 24, 10, 10), float32] */;
  %711 = cast(%23, dtype="float32") /* from_string */ /* ty=Tensor[(1, 48, 10, 10), float32] */;
  %712 = tile(%710, reps=[1, 48, 1, 1]) /* from_string */ /* ty=Tensor[(1, 1152, 10, 10), float32] */;
  %713 = reshape(%711, newshape=[1, -1, 0, 0]) /* from_string */ /* ty=Tensor[(1, 48, 10, 10), float32] */;
  %714 = reshape(%712, newshape=[-1, 1, 0, 0]) /* from_string */ /* ty=Tensor[(1152, 1, 10, 10), float32] */;
  %715 = nn.conv2d(%713, %714, padding=[0, 0, 0, 0], groups=48) /* from_string */ /* ty=Tensor[(1, 1152, 1, 1), float32] */;
  %716 = reshape(%715, newshape=[1, 48, 24, 1, 1]) /* from_string */ /* ty=Tensor[(1, 48, 24, 1, 1), float32] */;
  %717 = sum(%716, axis=[0]) /* from_string */ /* ty=Tensor[(48, 24, 1, 1), float32] */;
  %718 = cast(%22, dtype="float32") /* from_string */ /* ty=Tensor[(1, 48, 10, 10), float32] */;
  %719 = greater_equal(%718, -128f /* ty=float32 */) /* from_string */ /* ty=Tensor[(1, 48, 10, 10), bool] */;
  %720 = less_equal(%718, 127f /* ty=float32 */) /* from_string */ /* ty=Tensor[(1, 48, 10, 10), bool] */;
  %721 = cast(%v4_conv_2_weight, dtype="float32") /* from_string */ /* ty=Tensor[(24, 48, 1, 1), float32] */;
  %722 = multiply(%719, %720) /* from_string */ /* ty=Tensor[(1, 48, 10, 10), bool] */;
  %723 = nn.conv2d_transpose(%710, %721, channels=48, kernel_size=[1, 1], padding=[0, 0, 0, 0], kernel_layout="IOHW") /* from_string */ /* ty=Tensor[(1, 48, 10, 10), float32] */;
  %724 = zeros(shape=[1, 48, 10, 10], dtype="float32") /* from_string */ /* ty=Tensor[(1, 48, 10, 10), float32] */;
  %725 = where(%722, %723, %724) /* from_string */ /* ty=Tensor[(1, 48, 10, 10), float32] */;
  %726 = reshape(%v4_conv_1_scale, newshape=[1, -1, 1, 1]) /* from_string */ /* ty=Tensor[(1, 48, 1, 1), float32] */;
  %727 = multiply(%725, %726) /* from_string */ /* ty=Tensor[(1, 48, 10, 10), float32] */;
  %728 = cast(%21, dtype="float32") /* from_string */ /* ty=Tensor[(1, 48, 20, 20), float32] */;
  %729 = tile(%727, reps=[1, 1, 1, 1]) /* from_string */ /* ty=Tensor[(1, 48, 10, 10), float32] */;
  %730 = reshape(%728, newshape=[1, -1, 0, 0]) /* from_string */ /* ty=Tensor[(1, 48, 20, 20), float32] */;
  %731 = reshape(%729, newshape=[-1, 1, 0, 0]) /* from_string */ /* ty=Tensor[(48, 1, 10, 10), float32] */;
  %732 = nn.conv2d(%730, %731, padding=[3, 3, 3, 3], dilation=[2, 2], groups=48) /* from_string */ /* ty=Tensor[(1, 48, 8, 8), float32] */;
  %733 = reshape(%732, newshape=[1, 1, 48, 8, 8]) /* from_string */ /* ty=Tensor[(1, 1, 48, 8, 8), float32] */;
  %734 = sum(%733, axis=[0]) /* from_string */ /* ty=Tensor[(1, 48, 8, 8), float32] */;
  %735 = transpose(%734, axes=[1, 0, 2, 3]) /* from_string */ /* ty=Tensor[(48, 1, 8, 8), float32] */;
  %736 = cast(%20, dtype="float32") /* from_string */ /* ty=Tensor[(1, 48, 20, 20), float32] */;
  %737 = greater_equal(%736, -128f /* ty=float32 */) /* from_string */ /* ty=Tensor[(1, 48, 20, 20), bool] */;
  %738 = less_equal(%736, 127f /* ty=float32 */) /* from_string */ /* ty=Tensor[(1, 48, 20, 20), bool] */;
  %739 = cast(%v4_conv_1_weight, dtype="float32") /* from_string */ /* ty=Tensor[(48, 1, 7, 7), float32] */;
  %740 = multiply(%737, %738) /* from_string */ /* ty=Tensor[(1, 48, 20, 20), bool] */;
  %741 = nn.conv2d_transpose(%727, %739, channels=48, kernel_size=[7, 7], strides=[2, 2], output_padding=[1, 1], padding=[3, 3, 3, 3], groups=48, kernel_layout="IOHW") /* from_string */ /* ty=Tensor[(1, 48, 20, 20), float32] */;
  %742 = zeros(shape=[1, 48, 20, 20], dtype="float32") /* from_string */ /* ty=Tensor[(1, 48, 20, 20), float32] */;
  %743 = where(%740, %741, %742) /* from_string */ /* ty=Tensor[(1, 48, 20, 20), float32] */;
  %744 = reshape(%v4_conv_0_scale, newshape=[1, -1, 1, 1]) /* from_string */ /* ty=Tensor[(1, 48, 1, 1), float32] */;
  %745 = multiply(%743, %744) /* from_string */ /* ty=Tensor[(1, 48, 20, 20), float32] */;
  %746 = cast(%19, dtype="float32") /* from_string */ /* ty=Tensor[(1, 16, 20, 20), float32] */;
  %747 = tile(%745, reps=[1, 16, 1, 1]) /* from_string */ /* ty=Tensor[(1, 768, 20, 20), float32] */;
  %748 = reshape(%746, newshape=[1, -1, 0, 0]) /* from_string */ /* ty=Tensor[(1, 16, 20, 20), float32] */;
  %749 = reshape(%747, newshape=[-1, 1, 0, 0]) /* from_string */ /* ty=Tensor[(768, 1, 20, 20), float32] */;
  %750 = nn.conv2d(%748, %749, padding=[0, 0, 0, 0], groups=16) /* from_string */ /* ty=Tensor[(1, 768, 1, 1), float32] */;
  %751 = reshape(%750, newshape=[1, 16, 48, 1, 1]) /* from_string */ /* ty=Tensor[(1, 16, 48, 1, 1), float32] */;
  %752 = sum(%751, axis=[0]) /* from_string */ /* ty=Tensor[(16, 48, 1, 1), float32] */;
  %753 = cast(%16, dtype="float32") /* from_string */ /* ty=Tensor[(1, 16, 20, 20), float32] */;
  %754 = greater_equal(%753, -128f /* ty=float32 */) /* from_string */ /* ty=Tensor[(1, 16, 20, 20), bool] */;
  %755 = less_equal(%753, 127f /* ty=float32 */) /* from_string */ /* ty=Tensor[(1, 16, 20, 20), bool] */;
  %756 = cast(%18, dtype="float32") /* from_string */ /* ty=Tensor[(1, 16, 20, 20), float32] */;
  %757 = greater_equal(%756, -128f /* ty=float32 */) /* from_string */ /* ty=Tensor[(1, 16, 20, 20), bool] */;
  %758 = less_equal(%756, 127f /* ty=float32 */) /* from_string */ /* ty=Tensor[(1, 16, 20, 20), bool] */;
  %759 = cast(%v4_conv_0_weight, dtype="float32") /* from_string */ /* ty=Tensor[(48, 16, 1, 1), float32] */;
  %760 = multiply(%757, %758) /* from_string */ /* ty=Tensor[(1, 16, 20, 20), bool] */;
  %761 = nn.conv2d_transpose(%745, %759, channels=16, kernel_size=[1, 1], padding=[0, 0, 0, 0], kernel_layout="IOHW") /* from_string */ /* ty=Tensor[(1, 16, 20, 20), float32] */;
  %762 = zeros(shape=[1, 16, 20, 20], dtype="float32") /* from_string */ /* ty=Tensor[(1, 16, 20, 20), float32] */;
  %763 = where(%760, %761, %762) /* from_string */ /* ty=Tensor[(1, 16, 20, 20), float32] */;
  %764 = reshape(%v3_qadd_scale_y, newshape=[1, -1, 1, 1]) /* from_string */ /* ty=Tensor[(1, 1, 1, 1), float32] */;
  %765 = divide(%763, %764) /* from_string */ /* ty=Tensor[(1, 16, 20, 20), float32] */;
  %766 = reshape(%v3_qadd_scale_x2, newshape=[1, -1, 1, 1]) /* from_string */ /* ty=Tensor[(1, 1, 1, 1), float32] */;
  %767 = multiply(%754, %755) /* from_string */ /* ty=Tensor[(1, 16, 20, 20), bool] */;
  %768 = multiply(%765, %766) /* from_string */ /* ty=Tensor[(1, 16, 20, 20), float32] */;
  %769 = zeros(shape=[1, 16, 20, 20], dtype="float32") /* from_string */ /* ty=Tensor[(1, 16, 20, 20), float32] */;
  %770 = where(%767, %768, %769) /* from_string */ /* ty=Tensor[(1, 16, 20, 20), float32] */;
  %771 = reshape(%v3_conv_2_scale, newshape=[1, -1, 1, 1]) /* from_string */ /* ty=Tensor[(1, 16, 1, 1), float32] */;
  %772 = multiply(%770, %771) /* from_string */ /* ty=Tensor[(1, 16, 20, 20), float32] */;
  %773 = cast(%15, dtype="float32") /* from_string */ /* ty=Tensor[(1, 48, 20, 20), float32] */;
  %774 = tile(%772, reps=[1, 48, 1, 1]) /* from_string */ /* ty=Tensor[(1, 768, 20, 20), float32] */;
  %775 = reshape(%773, newshape=[1, -1, 0, 0]) /* from_string */ /* ty=Tensor[(1, 48, 20, 20), float32] */;
  %776 = reshape(%774, newshape=[-1, 1, 0, 0]) /* from_string */ /* ty=Tensor[(768, 1, 20, 20), float32] */;
  %777 = nn.conv2d(%775, %776, padding=[0, 0, 0, 0], groups=48) /* from_string */ /* ty=Tensor[(1, 768, 1, 1), float32] */;
  %778 = reshape(%777, newshape=[1, 48, 16, 1, 1]) /* from_string */ /* ty=Tensor[(1, 48, 16, 1, 1), float32] */;
  %779 = sum(%778, axis=[0]) /* from_string */ /* ty=Tensor[(48, 16, 1, 1), float32] */;
  %780 = cast(%14, dtype="float32") /* from_string */ /* ty=Tensor[(1, 48, 20, 20), float32] */;
  %781 = greater_equal(%780, -128f /* ty=float32 */) /* from_string */ /* ty=Tensor[(1, 48, 20, 20), bool] */;
  %782 = less_equal(%780, 127f /* ty=float32 */) /* from_string */ /* ty=Tensor[(1, 48, 20, 20), bool] */;
  %783 = cast(%v3_conv_2_weight, dtype="float32") /* from_string */ /* ty=Tensor[(16, 48, 1, 1), float32] */;
  %784 = multiply(%781, %782) /* from_string */ /* ty=Tensor[(1, 48, 20, 20), bool] */;
  %785 = nn.conv2d_transpose(%772, %783, channels=48, kernel_size=[1, 1], padding=[0, 0, 0, 0], kernel_layout="IOHW") /* from_string */ /* ty=Tensor[(1, 48, 20, 20), float32] */;
  %786 = zeros(shape=[1, 48, 20, 20], dtype="float32") /* from_string */ /* ty=Tensor[(1, 48, 20, 20), float32] */;
  %787 = where(%784, %785, %786) /* from_string */ /* ty=Tensor[(1, 48, 20, 20), float32] */;
  %788 = reshape(%v3_conv_1_scale, newshape=[1, -1, 1, 1]) /* from_string */ /* ty=Tensor[(1, 48, 1, 1), float32] */;
  %789 = multiply(%787, %788) /* from_string */ /* ty=Tensor[(1, 48, 20, 20), float32] */;
  %790 = cast(%13, dtype="float32") /* from_string */ /* ty=Tensor[(1, 48, 20, 20), float32] */;
  %791 = tile(%789, reps=[1, 1, 1, 1]) /* from_string */ /* ty=Tensor[(1, 48, 20, 20), float32] */;
  %792 = reshape(%790, newshape=[1, -1, 0, 0]) /* from_string */ /* ty=Tensor[(1, 48, 20, 20), float32] */;
  %793 = reshape(%791, newshape=[-1, 1, 0, 0]) /* from_string */ /* ty=Tensor[(48, 1, 20, 20), float32] */;
  %794 = nn.conv2d(%792, %793, padding=[1, 1, 1, 1], groups=48) /* from_string */ /* ty=Tensor[(1, 48, 3, 3), float32] */;
  %795 = reshape(%794, newshape=[1, 1, 48, 3, 3]) /* from_string */ /* ty=Tensor[(1, 1, 48, 3, 3), float32] */;
  %796 = sum(%795, axis=[0]) /* from_string */ /* ty=Tensor[(1, 48, 3, 3), float32] */;
  %797 = cast(%12, dtype="float32") /* from_string */ /* ty=Tensor[(1, 48, 20, 20), float32] */;
  %798 = greater_equal(%797, -128f /* ty=float32 */) /* from_string */ /* ty=Tensor[(1, 48, 20, 20), bool] */;
  %799 = less_equal(%797, 127f /* ty=float32 */) /* from_string */ /* ty=Tensor[(1, 48, 20, 20), bool] */;
  %800 = cast(%v3_conv_1_weight, dtype="float32") /* from_string */ /* ty=Tensor[(48, 1, 3, 3), float32] */;
  %801 = multiply(%798, %799) /* from_string */ /* ty=Tensor[(1, 48, 20, 20), bool] */;
  %802 = nn.conv2d_transpose(%789, %800, channels=48, kernel_size=[3, 3], padding=[1, 1, 1, 1], groups=48, kernel_layout="IOHW") /* from_string */ /* ty=Tensor[(1, 48, 20, 20), float32] */;
  %803 = zeros(shape=[1, 48, 20, 20], dtype="float32") /* from_string */ /* ty=Tensor[(1, 48, 20, 20), float32] */;
  %804 = where(%801, %802, %803) /* from_string */ /* ty=Tensor[(1, 48, 20, 20), float32] */;
  %805 = reshape(%v3_conv_0_scale, newshape=[1, -1, 1, 1]) /* from_string */ /* ty=Tensor[(1, 48, 1, 1), float32] */;
  %806 = multiply(%804, %805) /* from_string */ /* ty=Tensor[(1, 48, 20, 20), float32] */;
  %807 = cast(%11, dtype="float32") /* from_string */ /* ty=Tensor[(1, 16, 20, 20), float32] */;
  %808 = tile(%806, reps=[1, 16, 1, 1]) /* from_string */ /* ty=Tensor[(1, 768, 20, 20), float32] */;
  %809 = reshape(%807, newshape=[1, -1, 0, 0]) /* from_string */ /* ty=Tensor[(1, 16, 20, 20), float32] */;
  %810 = reshape(%808, newshape=[-1, 1, 0, 0]) /* from_string */ /* ty=Tensor[(768, 1, 20, 20), float32] */;
  %811 = nn.conv2d(%809, %810, padding=[0, 0, 0, 0], groups=16) /* from_string */ /* ty=Tensor[(1, 768, 1, 1), float32] */;
  %812 = reshape(%811, newshape=[1, 16, 48, 1, 1]) /* from_string */ /* ty=Tensor[(1, 16, 48, 1, 1), float32] */;
  %813 = sum(%812, axis=[0]) /* from_string */ /* ty=Tensor[(16, 48, 1, 1), float32] */;
  %814 = cast(%10, dtype="float32") /* from_string */ /* ty=Tensor[(1, 16, 20, 20), float32] */;
  %815 = greater_equal(%814, -128f /* ty=float32 */) /* from_string */ /* ty=Tensor[(1, 16, 20, 20), bool] */;
  %816 = less_equal(%814, 127f /* ty=float32 */) /* from_string */ /* ty=Tensor[(1, 16, 20, 20), bool] */;
  %817 = cast(%v3_conv_0_weight, dtype="float32") /* from_string */ /* ty=Tensor[(48, 16, 1, 1), float32] */;
  %818 = multiply(%815, %816) /* from_string */ /* ty=Tensor[(1, 16, 20, 20), bool] */;
  %819 = nn.conv2d_transpose(%806, %817, channels=16, kernel_size=[1, 1], padding=[0, 0, 0, 0], kernel_layout="IOHW") /* from_string */ /* ty=Tensor[(1, 16, 20, 20), float32] */;
  %820 = zeros(shape=[1, 16, 20, 20], dtype="float32") /* from_string */ /* ty=Tensor[(1, 16, 20, 20), float32] */;
  %821 = where(%818, %819, %820) /* from_string */ /* ty=Tensor[(1, 16, 20, 20), float32] */;
  %822 = reshape(%v2_conv_2_scale, newshape=[1, -1, 1, 1]) /* from_string */ /* ty=Tensor[(1, 16, 1, 1), float32] */;
  %823 = multiply(%821, %822) /* from_string */ /* ty=Tensor[(1, 16, 20, 20), float32] */;
  %824 = cast(%9, dtype="float32") /* from_string */ /* ty=Tensor[(1, 32, 20, 20), float32] */;
  %825 = tile(%823, reps=[1, 32, 1, 1]) /* from_string */ /* ty=Tensor[(1, 512, 20, 20), float32] */;
  %826 = reshape(%824, newshape=[1, -1, 0, 0]) /* from_string */ /* ty=Tensor[(1, 32, 20, 20), float32] */;
  %827 = reshape(%825, newshape=[-1, 1, 0, 0]) /* from_string */ /* ty=Tensor[(512, 1, 20, 20), float32] */;
  %828 = nn.conv2d(%826, %827, padding=[0, 0, 0, 0], groups=32) /* from_string */ /* ty=Tensor[(1, 512, 1, 1), float32] */;
  %829 = reshape(%828, newshape=[1, 32, 16, 1, 1]) /* from_string */ /* ty=Tensor[(1, 32, 16, 1, 1), float32] */;
  %830 = sum(%829, axis=[0]) /* from_string */ /* ty=Tensor[(32, 16, 1, 1), float32] */;
  %831 = cast(%8, dtype="float32") /* from_string */ /* ty=Tensor[(1, 32, 20, 20), float32] */;
  %832 = greater_equal(%831, -128f /* ty=float32 */) /* from_string */ /* ty=Tensor[(1, 32, 20, 20), bool] */;
  %833 = less_equal(%831, 127f /* ty=float32 */) /* from_string */ /* ty=Tensor[(1, 32, 20, 20), bool] */;
  %834 = cast(%v2_conv_2_weight, dtype="float32") /* from_string */ /* ty=Tensor[(16, 32, 1, 1), float32] */;
  %835 = multiply(%832, %833) /* from_string */ /* ty=Tensor[(1, 32, 20, 20), bool] */;
  %836 = nn.conv2d_transpose(%823, %834, channels=32, kernel_size=[1, 1], padding=[0, 0, 0, 0], kernel_layout="IOHW") /* from_string */ /* ty=Tensor[(1, 32, 20, 20), float32] */;
  %837 = zeros(shape=[1, 32, 20, 20], dtype="float32") /* from_string */ /* ty=Tensor[(1, 32, 20, 20), float32] */;
  %838 = where(%835, %836, %837) /* from_string */ /* ty=Tensor[(1, 32, 20, 20), float32] */;
  %839 = reshape(%v2_conv_1_scale, newshape=[1, -1, 1, 1]) /* from_string */ /* ty=Tensor[(1, 32, 1, 1), float32] */;
  %840 = multiply(%838, %839) /* from_string */ /* ty=Tensor[(1, 32, 20, 20), float32] */;
  %841 = cast(%7, dtype="float32") /* from_string */ /* ty=Tensor[(1, 32, 40, 40), float32] */;
  %842 = tile(%840, reps=[1, 1, 1, 1]) /* from_string */ /* ty=Tensor[(1, 32, 20, 20), float32] */;
  %843 = reshape(%841, newshape=[1, -1, 0, 0]) /* from_string */ /* ty=Tensor[(1, 32, 40, 40), float32] */;
  %844 = reshape(%842, newshape=[-1, 1, 0, 0]) /* from_string */ /* ty=Tensor[(32, 1, 20, 20), float32] */;
  %845 = nn.conv2d(%843, %844, padding=[1, 1, 1, 1], dilation=[2, 2], groups=32) /* from_string */ /* ty=Tensor[(1, 32, 4, 4), float32] */;
  %846 = reshape(%845, newshape=[1, 1, 32, 4, 4]) /* from_string */ /* ty=Tensor[(1, 1, 32, 4, 4), float32] */;
  %847 = sum(%846, axis=[0]) /* from_string */ /* ty=Tensor[(1, 32, 4, 4), float32] */;
  %848 = transpose(%847, axes=[1, 0, 2, 3]) /* from_string */ /* ty=Tensor[(32, 1, 4, 4), float32] */;
  %849 = cast(%6, dtype="float32") /* from_string */ /* ty=Tensor[(1, 32, 40, 40), float32] */;
  %850 = greater_equal(%849, -128f /* ty=float32 */) /* from_string */ /* ty=Tensor[(1, 32, 40, 40), bool] */;
  %851 = less_equal(%849, 127f /* ty=float32 */) /* from_string */ /* ty=Tensor[(1, 32, 40, 40), bool] */;
  %852 = cast(%v2_conv_1_weight, dtype="float32") /* from_string */ /* ty=Tensor[(32, 1, 3, 3), float32] */;
  %853 = multiply(%850, %851) /* from_string */ /* ty=Tensor[(1, 32, 40, 40), bool] */;
  %854 = nn.conv2d_transpose(%840, %852, channels=32, kernel_size=[3, 3], strides=[2, 2], output_padding=[1, 1], padding=[1, 1, 1, 1], groups=32, kernel_layout="IOHW") /* from_string */ /* ty=Tensor[(1, 32, 40, 40), float32] */;
  %855 = zeros(shape=[1, 32, 40, 40], dtype="float32") /* from_string */ /* ty=Tensor[(1, 32, 40, 40), float32] */;
  %856 = where(%853, %854, %855) /* from_string */ /* ty=Tensor[(1, 32, 40, 40), float32] */;
  %857 = reshape(%v2_conv_0_scale, newshape=[1, -1, 1, 1]) /* from_string */ /* ty=Tensor[(1, 32, 1, 1), float32] */;
  %858 = multiply(%856, %857) /* from_string */ /* ty=Tensor[(1, 32, 40, 40), float32] */;
  %859 = cast(%5, dtype="float32") /* from_string */ /* ty=Tensor[(1, 8, 40, 40), float32] */;
  %860 = tile(%858, reps=[1, 8, 1, 1]) /* from_string */ /* ty=Tensor[(1, 256, 40, 40), float32] */;
  %861 = reshape(%859, newshape=[1, -1, 0, 0]) /* from_string */ /* ty=Tensor[(1, 8, 40, 40), float32] */;
  %862 = reshape(%860, newshape=[-1, 1, 0, 0]) /* from_string */ /* ty=Tensor[(256, 1, 40, 40), float32] */;
  %863 = nn.conv2d(%861, %862, padding=[0, 0, 0, 0], groups=8) /* from_string */ /* ty=Tensor[(1, 256, 1, 1), float32] */;
  %864 = reshape(%863, newshape=[1, 8, 32, 1, 1]) /* from_string */ /* ty=Tensor[(1, 8, 32, 1, 1), float32] */;
  %865 = sum(%864, axis=[0]) /* from_string */ /* ty=Tensor[(8, 32, 1, 1), float32] */;
  %866 = cast(%4, dtype="float32") /* from_string */ /* ty=Tensor[(1, 8, 40, 40), float32] */;
  %867 = greater_equal(%866, -128f /* ty=float32 */) /* from_string */ /* ty=Tensor[(1, 8, 40, 40), bool] */;
  %868 = less_equal(%866, 127f /* ty=float32 */) /* from_string */ /* ty=Tensor[(1, 8, 40, 40), bool] */;
  %869 = cast(%v2_conv_0_weight, dtype="float32") /* from_string */ /* ty=Tensor[(32, 8, 1, 1), float32] */;
  %870 = multiply(%867, %868) /* from_string */ /* ty=Tensor[(1, 8, 40, 40), bool] */;
  %871 = nn.conv2d_transpose(%858, %869, channels=8, kernel_size=[1, 1], padding=[0, 0, 0, 0], kernel_layout="IOHW") /* from_string */ /* ty=Tensor[(1, 8, 40, 40), float32] */;
  %872 = zeros(shape=[1, 8, 40, 40], dtype="float32") /* from_string */ /* ty=Tensor[(1, 8, 40, 40), float32] */;
  %873 = where(%870, %871, %872) /* from_string */ /* ty=Tensor[(1, 8, 40, 40), float32] */;
  %874 = reshape(%v1_conv_1_scale, newshape=[1, -1, 1, 1]) /* from_string */ /* ty=Tensor[(1, 8, 1, 1), float32] */;
  %875 = multiply(%873, %874) /* from_string */ /* ty=Tensor[(1, 8, 40, 40), float32] */;
  %876 = cast(%3, dtype="float32") /* from_string */ /* ty=Tensor[(1, 16, 40, 40), float32] */;
  %877 = tile(%875, reps=[1, 16, 1, 1]) /* from_string */ /* ty=Tensor[(1, 128, 40, 40), float32] */;
  %878 = reshape(%876, newshape=[1, -1, 0, 0]) /* from_string */ /* ty=Tensor[(1, 16, 40, 40), float32] */;
  %879 = reshape(%877, newshape=[-1, 1, 0, 0]) /* from_string */ /* ty=Tensor[(128, 1, 40, 40), float32] */;
  %880 = nn.conv2d(%878, %879, padding=[0, 0, 0, 0], groups=16) /* from_string */ /* ty=Tensor[(1, 128, 1, 1), float32] */;
  %881 = reshape(%880, newshape=[1, 16, 8, 1, 1]) /* from_string */ /* ty=Tensor[(1, 16, 8, 1, 1), float32] */;
  %882 = sum(%881, axis=[0]) /* from_string */ /* ty=Tensor[(16, 8, 1, 1), float32] */;
  %883 = cast(%2, dtype="float32") /* from_string */ /* ty=Tensor[(1, 16, 40, 40), float32] */;
  %884 = greater_equal(%883, -128f /* ty=float32 */) /* from_string */ /* ty=Tensor[(1, 16, 40, 40), bool] */;
  %885 = less_equal(%883, 127f /* ty=float32 */) /* from_string */ /* ty=Tensor[(1, 16, 40, 40), bool] */;
  %886 = cast(%v1_conv_1_weight, dtype="float32") /* from_string */ /* ty=Tensor[(8, 16, 1, 1), float32] */;
  %887 = multiply(%884, %885) /* from_string */ /* ty=Tensor[(1, 16, 40, 40), bool] */;
  %888 = nn.conv2d_transpose(%875, %886, channels=16, kernel_size=[1, 1], padding=[0, 0, 0, 0], kernel_layout="IOHW") /* from_string */ /* ty=Tensor[(1, 16, 40, 40), float32] */;
  %889 = zeros(shape=[1, 16, 40, 40], dtype="float32") /* from_string */ /* ty=Tensor[(1, 16, 40, 40), float32] */;
  %890 = where(%887, %888, %889) /* from_string */ /* ty=Tensor[(1, 16, 40, 40), float32] */;
  %891 = reshape(%v1_conv_0_scale, newshape=[1, -1, 1, 1]) /* from_string */ /* ty=Tensor[(1, 16, 1, 1), float32] */;
  %892 = multiply(%890, %891) /* from_string */ /* ty=Tensor[(1, 16, 40, 40), float32] */;
  %893 = cast(%1, dtype="float32") /* from_string */ /* ty=Tensor[(1, 16, 40, 40), float32] */;
  %894 = tile(%892, reps=[1, 1, 1, 1]) /* from_string */ /* ty=Tensor[(1, 16, 40, 40), float32] */;
  %895 = reshape(%893, newshape=[1, -1, 0, 0]) /* from_string */ /* ty=Tensor[(1, 16, 40, 40), float32] */;
  %896 = reshape(%894, newshape=[-1, 1, 0, 0]) /* from_string */ /* ty=Tensor[(16, 1, 40, 40), float32] */;
  %897 = nn.conv2d(%895, %896, padding=[1, 1, 1, 1], groups=16) /* from_string */ /* ty=Tensor[(1, 16, 3, 3), float32] */;
  %898 = reshape(%897, newshape=[1, 1, 16, 3, 3]) /* from_string */ /* ty=Tensor[(1, 1, 16, 3, 3), float32] */;
  %899 = sum(%898, axis=[0]) /* from_string */ /* ty=Tensor[(1, 16, 3, 3), float32] */;
  %900 = cast(%0, dtype="float32") /* from_string */ /* ty=Tensor[(1, 16, 40, 40), float32] */;
  %901 = greater_equal(%900, -128f /* ty=float32 */) /* from_string */ /* ty=Tensor[(1, 16, 40, 40), bool] */;
  %902 = less_equal(%900, 127f /* ty=float32 */) /* from_string */ /* ty=Tensor[(1, 16, 40, 40), bool] */;
  %903 = cast(%v1_conv_0_weight, dtype="float32") /* from_string */ /* ty=Tensor[(16, 1, 3, 3), float32] */;
  %904 = multiply(%901, %902) /* from_string */ /* ty=Tensor[(1, 16, 40, 40), bool] */;
  %905 = nn.conv2d_transpose(%892, %903, channels=16, kernel_size=[3, 3], padding=[1, 1, 1, 1], groups=16, kernel_layout="IOHW") /* from_string */ /* ty=Tensor[(1, 16, 40, 40), float32] */;
  %906 = zeros(shape=[1, 16, 40, 40], dtype="float32") /* from_string */ /* ty=Tensor[(1, 16, 40, 40), float32] */;
  %907 = where(%904, %905, %906) /* from_string */ /* ty=Tensor[(1, 16, 40, 40), float32] */;
  %908 = reshape(%v0_scale, newshape=[1, -1, 1, 1]) /* from_string */ /* ty=Tensor[(1, 16, 1, 1), float32] */;
  %909 = multiply(%907, %908) /* from_string */ /* ty=Tensor[(1, 16, 40, 40), float32] */;
  %910 = cast(%input, dtype="float32") /* from_string */ /* ty=Tensor[(1, 3, 80, 80), float32] */;
  %911 = tile(%909, reps=[1, 3, 1, 1]) /* from_string */ /* ty=Tensor[(1, 48, 40, 40), float32] */;
  %912 = reshape(%910, newshape=[1, -1, 0, 0]) /* from_string */ /* ty=Tensor[(1, 3, 80, 80), float32] */;
  %913 = reshape(%911, newshape=[-1, 1, 0, 0]) /* from_string */ /* ty=Tensor[(48, 1, 40, 40), float32] */;
  %914 = nn.conv2d(%912, %913, padding=[1, 1, 1, 1], dilation=[2, 2], groups=3) /* from_string */ /* ty=Tensor[(1, 48, 4, 4), float32] */;
  %915 = reshape(%914, newshape=[1, 3, 16, 4, 4]) /* from_string */ /* ty=Tensor[(1, 3, 16, 4, 4), float32] */;
  %916 = sum(%915, axis=[0]) /* from_string */ /* ty=Tensor[(3, 16, 4, 4), float32] */;
  %917 = transpose(%916, axes=[1, 0, 2, 3]) /* from_string */ /* ty=Tensor[(16, 3, 4, 4), float32] */;
  %918 = nn.cross_entropy_with_logits(%103, %label) /* from_string */ /* ty=float32 */;
  %919 = sum(%119, axis=[1], exclude=True) /* from_string */ /* ty=Tensor[(100), float32] */;
  %920 = transpose(%126, axes=[1, 0, 2, 3]) /* from_string */ /* ty=Tensor[(100, 160, 1, 1), float32] */;
  %921 = sum(%139, axis=[1], exclude=True) /* from_string */ /* ty=Tensor[(160), float32] */;
  %922 = transpose(%146, axes=[1, 0, 2, 3]) /* from_string */ /* ty=Tensor[(160, 576, 1, 1), float32] */;
  %923 = sum(%156, axis=[1], exclude=True) /* from_string */ /* ty=Tensor[(576), float32] */;
  %924 = transpose(%163, axes=[1, 0, 2, 3]) /* from_string */ /* ty=Tensor[(576, 1, 3, 3), float32] */;
  %925 = sum(%173, axis=[1], exclude=True) /* from_string */ /* ty=Tensor[(576), float32] */;
  %926 = transpose(%180, axes=[1, 0, 2, 3]) /* from_string */ /* ty=Tensor[(576, 96, 1, 1), float32] */;
  %927 = sum(%200, axis=[1], exclude=True) /* from_string */ /* ty=Tensor[(96), float32] */;
  %928 = transpose(%207, axes=[1, 0, 2, 3]) /* from_string */ /* ty=Tensor[(96, 384, 1, 1), float32] */;
  %929 = sum(%217, axis=[1], exclude=True) /* from_string */ /* ty=Tensor[(384), float32] */;
  %930 = transpose(%224, axes=[1, 0, 2, 3]) /* from_string */ /* ty=Tensor[(384, 1, 5, 5), float32] */;
  %931 = sum(%234, axis=[1], exclude=True) /* from_string */ /* ty=Tensor[(384), float32] */;
  %932 = transpose(%241, axes=[1, 0, 2, 3]) /* from_string */ /* ty=Tensor[(384, 96, 1, 1), float32] */;
  %933 = sum(%261, axis=[1], exclude=True) /* from_string */ /* ty=Tensor[(96), float32] */;
  %934 = transpose(%268, axes=[1, 0, 2, 3]) /* from_string */ /* ty=Tensor[(96, 384, 1, 1), float32] */;
  %935 = sum(%278, axis=[1], exclude=True) /* from_string */ /* ty=Tensor[(384), float32] */;
  %936 = transpose(%285, axes=[1, 0, 2, 3]) /* from_string */ /* ty=Tensor[(384, 1, 5, 5), float32] */;
  %937 = sum(%295, axis=[1], exclude=True) /* from_string */ /* ty=Tensor[(384), float32] */;
  %938 = transpose(%302, axes=[1, 0, 2, 3]) /* from_string */ /* ty=Tensor[(384, 96, 1, 1), float32] */;
  %939 = sum(%312, axis=[1], exclude=True) /* from_string */ /* ty=Tensor[(96), float32] */;
  %940 = transpose(%319, axes=[1, 0, 2, 3]) /* from_string */ /* ty=Tensor[(96, 240, 1, 1), float32] */;
  %941 = sum(%329, axis=[1], exclude=True) /* from_string */ /* ty=Tensor[(240), float32] */;
  %942 = transpose(%336, axes=[1, 0, 2, 3]) /* from_string */ /* ty=Tensor[(240, 1, 7, 7), float32] */;
  %943 = sum(%346, axis=[1], exclude=True) /* from_string */ /* ty=Tensor[(240), float32] */;
  %944 = transpose(%353, axes=[1, 0, 2, 3]) /* from_string */ /* ty=Tensor[(240, 48, 1, 1), float32] */;
  %945 = sum(%373, axis=[1], exclude=True) /* from_string */ /* ty=Tensor[(48), float32] */;
  %946 = transpose(%380, axes=[1, 0, 2, 3]) /* from_string */ /* ty=Tensor[(48, 192, 1, 1), float32] */;
  %947 = sum(%390, axis=[1], exclude=True) /* from_string */ /* ty=Tensor[(192), float32] */;
  %948 = transpose(%397, axes=[1, 0, 2, 3]) /* from_string */ /* ty=Tensor[(192, 1, 3, 3), float32] */;
  %949 = sum(%407, axis=[1], exclude=True) /* from_string */ /* ty=Tensor[(192), float32] */;
  %950 = transpose(%414, axes=[1, 0, 2, 3]) /* from_string */ /* ty=Tensor[(192, 48, 1, 1), float32] */;
  %951 = sum(%434, axis=[1], exclude=True) /* from_string */ /* ty=Tensor[(48), float32] */;
  %952 = transpose(%441, axes=[1, 0, 2, 3]) /* from_string */ /* ty=Tensor[(48, 144, 1, 1), float32] */;
  %953 = sum(%451, axis=[1], exclude=True) /* from_string */ /* ty=Tensor[(144), float32] */;
  %954 = transpose(%458, axes=[1, 0, 2, 3]) /* from_string */ /* ty=Tensor[(144, 1, 3, 3), float32] */;
  %955 = sum(%468, axis=[1], exclude=True) /* from_string */ /* ty=Tensor[(144), float32] */;
  %956 = transpose(%475, axes=[1, 0, 2, 3]) /* from_string */ /* ty=Tensor[(144, 48, 1, 1), float32] */;
  %957 = sum(%485, axis=[1], exclude=True) /* from_string */ /* ty=Tensor[(48), float32] */;
  %958 = transpose(%492, axes=[1, 0, 2, 3]) /* from_string */ /* ty=Tensor[(48, 160, 1, 1), float32] */;
  %959 = sum(%502, axis=[1], exclude=True) /* from_string */ /* ty=Tensor[(160), float32] */;
  %960 = transpose(%509, axes=[1, 0, 2, 3]) /* from_string */ /* ty=Tensor[(160, 1, 5, 5), float32] */;
  %961 = sum(%519, axis=[1], exclude=True) /* from_string */ /* ty=Tensor[(160), float32] */;
  %962 = transpose(%526, axes=[1, 0, 2, 3]) /* from_string */ /* ty=Tensor[(160, 40, 1, 1), float32] */;
  %963 = sum(%546, axis=[1], exclude=True) /* from_string */ /* ty=Tensor[(40), float32] */;
  %964 = transpose(%553, axes=[1, 0, 2, 3]) /* from_string */ /* ty=Tensor[(40, 160, 1, 1), float32] */;
  %965 = sum(%563, axis=[1], exclude=True) /* from_string */ /* ty=Tensor[(160), float32] */;
  %966 = transpose(%570, axes=[1, 0, 2, 3]) /* from_string */ /* ty=Tensor[(160, 1, 7, 7), float32] */;
  %967 = sum(%580, axis=[1], exclude=True) /* from_string */ /* ty=Tensor[(160), float32] */;
  %968 = transpose(%587, axes=[1, 0, 2, 3]) /* from_string */ /* ty=Tensor[(160, 40, 1, 1), float32] */;
  %969 = sum(%597, axis=[1], exclude=True) /* from_string */ /* ty=Tensor[(40), float32] */;
  %970 = transpose(%604, axes=[1, 0, 2, 3]) /* from_string */ /* ty=Tensor[(40, 120, 1, 1), float32] */;
  %971 = sum(%614, axis=[1], exclude=True) /* from_string */ /* ty=Tensor[(120), float32] */;
  %972 = strided_slice(%622, begin=[0, 0, 0, 0], end=[120, 1, 3, 3], strides=[1], axes=None) /* from_string */ /* ty=Tensor[(120, 1, 3, 3), float32] */;
  %973 = sum(%632, axis=[1], exclude=True) /* from_string */ /* ty=Tensor[(120), float32] */;
  %974 = transpose(%639, axes=[1, 0, 2, 3]) /* from_string */ /* ty=Tensor[(120, 24, 1, 1), float32] */;
  %975 = sum(%659, axis=[1], exclude=True) /* from_string */ /* ty=Tensor[(24), float32] */;
  %976 = transpose(%666, axes=[1, 0, 2, 3]) /* from_string */ /* ty=Tensor[(24, 120, 1, 1), float32] */;
  %977 = sum(%676, axis=[1], exclude=True) /* from_string */ /* ty=Tensor[(120), float32] */;
  %978 = transpose(%683, axes=[1, 0, 2, 3]) /* from_string */ /* ty=Tensor[(120, 1, 3, 3), float32] */;
  %979 = sum(%693, axis=[1], exclude=True) /* from_string */ /* ty=Tensor[(120), float32] */;
  %980 = transpose(%700, axes=[1, 0, 2, 3]) /* from_string */ /* ty=Tensor[(120, 24, 1, 1), float32] */;
  %981 = sum(%710, axis=[1], exclude=True) /* from_string */ /* ty=Tensor[(24), float32] */;
  %982 = transpose(%717, axes=[1, 0, 2, 3]) /* from_string */ /* ty=Tensor[(24, 48, 1, 1), float32] */;
  %983 = sum(%727, axis=[1], exclude=True) /* from_string */ /* ty=Tensor[(48), float32] */;
  %984 = strided_slice(%735, begin=[0, 0, 0, 0], end=[48, 1, 7, 7], strides=[1], axes=None) /* from_string */ /* ty=Tensor[(48, 1, 7, 7), float32] */;
  %985 = sum(%745, axis=[1], exclude=True) /* from_string */ /* ty=Tensor[(48), float32] */;
  %986 = transpose(%752, axes=[1, 0, 2, 3]) /* from_string */ /* ty=Tensor[(48, 16, 1, 1), float32] */;
  %987 = sum(%772, axis=[1], exclude=True) /* from_string */ /* ty=Tensor[(16), float32] */;
  %988 = transpose(%779, axes=[1, 0, 2, 3]) /* from_string */ /* ty=Tensor[(16, 48, 1, 1), float32] */;
  %989 = sum(%789, axis=[1], exclude=True) /* from_string */ /* ty=Tensor[(48), float32] */;
  %990 = transpose(%796, axes=[1, 0, 2, 3]) /* from_string */ /* ty=Tensor[(48, 1, 3, 3), float32] */;
  %991 = sum(%806, axis=[1], exclude=True) /* from_string */ /* ty=Tensor[(48), float32] */;
  %992 = transpose(%813, axes=[1, 0, 2, 3]) /* from_string */ /* ty=Tensor[(48, 16, 1, 1), float32] */;
  %993 = sum(%823, axis=[1], exclude=True) /* from_string */ /* ty=Tensor[(16), float32] */;
  %994 = transpose(%830, axes=[1, 0, 2, 3]) /* from_string */ /* ty=Tensor[(16, 32, 1, 1), float32] */;
  %995 = sum(%840, axis=[1], exclude=True) /* from_string */ /* ty=Tensor[(32), float32] */;
  %996 = strided_slice(%848, begin=[0, 0, 0, 0], end=[32, 1, 3, 3], strides=[1], axes=None) /* from_string */ /* ty=Tensor[(32, 1, 3, 3), float32] */;
  %997 = sum(%858, axis=[1], exclude=True) /* from_string */ /* ty=Tensor[(32), float32] */;
  %998 = transpose(%865, axes=[1, 0, 2, 3]) /* from_string */ /* ty=Tensor[(32, 8, 1, 1), float32] */;
  %999 = sum(%875, axis=[1], exclude=True) /* from_string */ /* ty=Tensor[(8), float32] */;
  %1000 = transpose(%882, axes=[1, 0, 2, 3]) /* from_string */ /* ty=Tensor[(8, 16, 1, 1), float32] */;
  %1001 = sum(%892, axis=[1], exclude=True) /* from_string */ /* ty=Tensor[(16), float32] */;
  %1002 = transpose(%899, axes=[1, 0, 2, 3]) /* from_string */ /* ty=Tensor[(16, 1, 3, 3), float32] */;
  %1003 = sum(%909, axis=[1], exclude=True) /* from_string */ /* ty=Tensor[(16), float32] */;
  %1004 = strided_slice(%917, begin=[0, 0, 0, 0], end=[16, 3, 3, 3], strides=[1], axes=None) /* from_string */ /* ty=Tensor[(16, 3, 3, 3), float32] */;
  (%918, %919, %920, %921, %922, %923, %924, %925, %926, %927, %928, %929, %930, %931, %932, %933, %934, %935, %936, %937, %938, %939, %940, %941, %942, %943, %944, %945, %946, %947, %948, %949, %950, %951, %952, %953, %954, %955, %956, %957, %958, %959, %960, %961, %962, %963, %964, %965, %966, %967, %968, %969, %970, %971, %972, %973, %974, %975, %976, %977, %978, %979, %980, %981, %982, %983, %984, %985, %986, %987, %988, %989, %990, %991, %992, %993, %994, %995, %996, %997, %998, %999, %1000, %1001, %1002, %1003, %1004)
}